results/model_final/mobilenetv2_qat_int8.tflite (tflite, 663520 bytes, 54 tensors)

tfl.pseudo_qconst1 i1 [1, 32] scale=0.0032160603 zero_point=0
000000 b1 46 ee 95 21 c2 bd 1c 83 b5 c3 7f a1 a3 22 b9
       -0.25406876 0.22512423 -0.057889085 -0.34411845 0.10612999 -0.19939575 -0.21547604 0.09004969 -0.40200755 -0.24120453 -0.19617969 0.40843967 -0.30552572 -0.2990936 0.109346054 -0.22834028
000010 a6 29 4f df 3b 67 37 64 a8 21 f2 91 18 27 22 e5
       -0.28944543 0.13185847 0.25406876 -0.10612999 0.18974756 0.3312542 0.17688332 0.32160604 -0.2830133 0.10612999 -0.045024846 -0.3569827 0.07718545 0.12542635 0.109346054 -0.086833626

tfl.pseudo_qconst3 i1 [32, 1280]
000000 4c 1a 2a c0 af 9d 33 3a f9 e5 fa 9e a6 03 63 fc
       76 26 42 -64 -81 -99 51 58 -7 -27 -6 -98 -90 3 99 -4
000010 df b3 de a7 16 ae b7 d6 b2 d0 4c bc a8 a0 c6 26
       -33 -77 -34 -89 22 -82 -73 -42 -78 -48 76 -68 -88 -96 -58 38
000020 53 35 bb b6 d1 96 91 13 ae a9 a7 ba 20 e3 9d f1
       83 53 -69 -74 -47 -106 -111 19 -82 -87 -89 -70 32 -29 -99 -15
000030 d0 5f ec 97 08 cb b8 05 93 d4 f5 b4 b9 a9 3e 1f
       -48 95 -20 -105 8 -53 -72 5 -109 -44 -11 -76 -71 -87 62 31
000040 1f 4e c1 55 2a e8 b4 d8 c2 a3 1b aa 14 22 1c 2f
       31 78 -63 85 42 -24 -76 -40 -62 -93 27 -86 20 34 28 47
000050 34 b2 8f d7 bd 57 96 b5 46 8f 5c 5c c5 eb 37 51
       52 -78 -113 -41 -67 87 -106 -75 70 -113 92 92 -59 -21 55 81
000060 ca 56 46 9d f9 ff a3 13 3f 16 4e ec 22 e4 df 9e
       -54 86 70 -99 -7 -1 -93 19 63 22 78 -20 34 -28 -33 -98
000070 29 b6 f4 04 67 64 1f fb a7 f7 5a e4 90 8f d9 04
       41 -74 -12 4 103 100 31 -5 -89 -9 90 -28 -112 -113 -39 4
000080 e9 2b 8c 33 2e 5c d0 dd ed 11 49 b5 b3 70 b5 86
       -23 43 -116 51 46 92 -48 -35 -19 17 73 -75 -77 112 -75 -122
000090 ee 9c e1 2d 19 dc 23 9b ec dc 93 e0 6e d1 5b d8
       -18 -100 -31 45 25 -36 35 -101 -20 -36 -109 -32 110 -47 91 -40
0000a0 d4 0e f0 3f ac fa 38 4f 3a 05 ca 3c a1 1d 41 a1
       -44 14 -16 63 -84 -6 56 79 58 5 -54 60 -95 29 65 -95
0000b0 23 f3 f5 8c 54 bc eb 5e e3 26 ae 57 62 68 c2 c1
       35 -13 -11 -116 84 -68 -21 94 -29 38 -82 87 98 104 -62 -63
0000c0 2e 89 52 fa c2 ff e8 18 95 2e 10 6a f4 d3 59 ef
       46 -119 82 -6 -62 -1 -24 24 -107 46 16 106 -12 -45 89 -17
0000d0 1c af 11 19 a8 17 92 23 24 9d 1e b2 df 62 ba b9
       28 -81 17 25 -88 23 -110 35 36 -99 30 -78 -33 98 -70 -71
0000e0 1a 12 0d 15 39 fb 56 e8 43 e1 54 f9 93 57 31 1f
       26 18 13 21 57 -5 86 -24 67 -31 84 -7 -109 87 49 31
0000f0 52 68 04 f6 e6 d6 15 70 f6 bc fc ae b4 a3 3e d8
       82 104 4 -10 -26 -42 21 112 -10 -68 -4 -82 -76 -93 62 -40

tfl.pseudo_qconst5 i1 [1280, 1, 1, 112]
000000 17 4e f3 23 20 06 f7 2d 4d e1 19 27 4c 26 af 42
       23 78 -13 35 32 6 -9 45 77 -31 25 39 76 38 -81 66
000010 f0 41 d2 f9 35 15 18 d5 f1 ec 15 1b cc b6 ce 12
       -16 65 -46 -7 53 21 24 -43 -15 -20 21 27 -52 -74 -50 18
000020 b3 ee ed bd 81 0a 2a e8 e8 2e b4 10 ea 4a e8 da
       -77 -18 -19 -67 -127 10 42 -24 -24 46 -76 16 -22 74 -24 -38
000030 0b 41 f9 7b 36 1f f6 02 17 ef 17 ef 1b fb eb fc
       11 65 -7 123 54 31 -10 2 23 -17 23 -17 27 -5 -21 -4
000040 c3 19 e4 03 a6 0e ca 15 13 ec 29 b4 10 f4 b0 26
       -61 25 -28 3 -90 14 -54 21 19 -20 41 -76 16 -12 -80 38
000050 0f ce 4b e9 c9 84 20 ec 0b b6 eb ca 32 ee 29 1a
       15 -50 75 -23 -55 -124 32 -20 11 -74 -21 -54 50 -18 41 26
000060 d5 04 1a f9 c9 ed d5 00 2c 08 15 b6 12 ad 1a b8
       -43 4 26 -7 -55 -19 -43 0 44 8 21 -74 18 -83 26 -72
000070 d1 7f 04 06 5f 45 28 08 f8 10 1e 37 0c e2 14 e7
       -47 127 4 6 95 69 40 8 -8 16 30 55 12 -30 20 -25
000080 fe 61 f2 0a 04 c1 59 f5 14 44 3f c7 d1 13 16 01
       -2 97 -14 10 4 -63 89 -11 20 68 63 -57 -47 19 22 1
000090 11 ed eb d4 27 01 eb a4 cf 0e 5a ec df 01 f6 f4
       17 -19 -21 -44 39 1 -21 -92 -49 14 90 -20 -33 1 -10 -12
0000a0 07 d5 1f ac 2a e9 1c 24 1d 0b de 16 07 03 19 b8
       7 -43 31 -84 42 -23 28 36 29 11 -34 22 7 3 25 -72
0000b0 f3 16 c4 29 af ee cf 34 c1 0e d5 f3 fa f2 12 1b
       -13 22 -60 41 -81 -18 -49 52 -63 14 -43 -13 -6 -14 18 27
0000c0 a6 ff 55 fb 2d 11 07 17 83 a4 0a 05 41 06 dd d1
       -90 -1 85 -5 45 17 7 23 -125 -92 10 5 65 6 -35 -47
0000d0 38 0c 0a ce 68 23 c8 ff dd cc 86 32 16 0f 4f ce
       56 12 10 -50 104 35 -56 -1 -35 -52 -122 50 22 15 79 -50
0000e0 f5 f5 02 f3 7f 03 f7 ae fe 20 f5 10 e7 f6 b2 ab
       -11 -11 2 -13 127 3 -9 -82 -2 32 -11 16 -25 -10 -78 -85
0000f0 0d eb 1b 0f dc 4a 0b f6 14 d0 e3 b4 c1 d3 15 d2
       13 -21 27 15 -36 74 11 -10 20 -48 -29 -76 -63 -45 21 -46

tfl.pseudo_qconst7 i1 [112, 1, 1, 336]
000000 cd 1f 00 03 ae 1f e6 0e e3 00 16 fa 3c 37 b4 fb
       -51 31 0 3 -82 31 -26 14 -29 0 22 -6 60 55 -76 -5
000010 04 e6 da fe 25 f6 13 d9 f5 02 fe 33 df 01 0d dd
       4 -26 -38 -2 37 -10 19 -39 -11 2 -2 51 -33 1 13 -35
000020 1b eb 0c cf f9 cc ff df 40 d7 34 38 e3 13 bc 28
       27 -21 12 -49 -7 -52 -1 -33 64 -41 52 56 -29 19 -68 40
000030 de 44 e7 f4 d1 f2 40 32 1a d1 0d 43 15 ed f1 16
       -34 68 -25 -12 -47 -14 64 50 26 -47 13 67 21 -19 -15 22
000040 f7 11 26 ee 18 0f 01 1e 37 06 ee 09 ff cb d3 0d
       -9 17 38 -18 24 15 1 30 55 6 -18 9 -1 -53 -45 13
000050 cc f3 f4 c9 f6 e9 04 ea 8f 29 05 0c 06 ff 1b 0e
       -52 -13 -12 -55 -10 -23 4 -22 -113 41 5 12 6 -1 27 14
000060 fd e2 d2 9b 26 e8 27 15 40 22 22 dc f5 1c ee c1
       -3 -30 -46 -101 38 -24 39 21 64 34 34 -36 -11 28 -18 -63
000070 03 be 22 b6 18 b3 d4 27 ba fe e4 27 f0 f4 1d 02
       3 -66 34 -74 24 -77 -44 39 -70 -2 -28 39 -16 -12 29 2
000080 e0 0d ff 05 55 cb e9 1d 14 e0 f0 0d 3b e7 f0 c6
       -32 13 -1 5 85 -53 -23 29 20 -32 -16 13 59 -25 -16 -58
000090 d4 45 08 09 29 14 20 b2 14 fa 12 c1 d5 e9 20 25
       -44 69 8 9 41 20 32 -78 20 -6 18 -63 -43 -23 32 37
0000a0 52 09 fe 02 eb 55 e0 cd 28 0a ec 0d f8 06 07 47
       82 9 -2 2 -21 85 -32 -51 40 10 -20 13 -8 6 7 71
0000b0 02 cb 27 04 16 fe 26 1d 04 23 f8 e0 f7 26 37 e2
       2 -53 39 4 22 -2 38 29 4 35 -8 -32 -9 38 55 -30
0000c0 29 20 00 05 ff cb 2a 08 e8 17 12 24 ff 9e dd 03
       41 32 0 5 -1 -53 42 8 -24 23 18 36 -1 -98 -35 3
0000d0 01 f1 f2 34 cb 1d 00 de da 02 09 f8 f7 e9 21 09
       1 -15 -14 52 -53 29 0 -34 -38 2 9 -8 -9 -23 33 9
0000e0 12 e1 f8 18 f5 00 f7 f1 ed c2 dc 0f 33 11 1f cc
       18 -31 -8 24 -11 0 -9 -15 -19 -62 -36 15 51 17 31 -52
0000f0 20 2e 12 e1 46 03 d1 06 0e 02 e9 ca 1e 04 f6 0f
       32 46 18 -31 70 3 -47 6 14 2 -23 -54 30 4 -10 15

tfl.pseudo_qconst9 i1 [1, 3, 3, 336]
000000 56 69 5e 5a 5a 53 5b 63 63 42 46 43 60 4e 4c 68
       86 105 94 90 90 83 91 99 99 66 70 67 96 78 76 104
000010 5a 36 57 61 c5 69 a4 58 a7 5a cf 9f 9d 84 c4 3d
       90 54 87 97 -59 105 -92 88 -89 90 -49 -97 -99 -124 -60 61
000020 17 63 be 56 65 81 6a 52 3e cc 3a 48 7f 51 58 53
       23 99 -66 86 101 -127 106 82 62 -52 58 72 127 81 88 83
000030 b9 56 90 24 81 56 a8 4f f1 bd b3 7a 55 c6 5c 5d
       -71 86 -112 36 -127 86 -88 79 -15 -67 -77 122 85 -58 92 93
000040 6a fe 96 34 56 45 58 56 4e fb 5e a1 61 3e b2 a3
       106 -2 -106 52 86 69 88 86 78 -5 94 -95 97 62 -78 -93
000050 a9 57 4d 36 9e ca 2d 81 43 45 a8 57 65 a7 b4 5d
       -87 87 77 54 -98 -54 45 -127 67 69 -88 87 101 -89 -76 93
000060 5f 81 66 2a 67 cc 6e 03 6b 55 56 42 5c b4 c7 a1
       95 -127 102 42 103 -52 110 3 107 85 86 66 92 -76 -57 -95
000070 27 58 b6 9e 43 55 ce e3 40 40 31 5f c3 a4 41 1a
       39 88 -74 -98 67 85 -50 -29 64 64 49 95 -61 -92 65 26
000080 ea 7f 71 cd 23 b2 5b ca 22 1b 64 0d 94 a5 52 cd
       -22 127 113 -51 35 -78 91 -54 34 27 100 13 -108 -91 82 -51
000090 ad 52 53 97 40 7f 64 47 62 bb 9d 57 a8 a0 3c 5b
       -83 82 83 -105 64 127 100 71 98 -69 -99 87 -88 -96 60 91
0000a0 93 50 33 5d 5b a7 59 55 90 5c 8f 81 41 b5 d3 b6
       -109 80 51 93 91 -89 89 85 -112 92 -113 -127 65 -75 -45 -74
0000b0 e7 20 4c 50 3f 9b 7c f1 57 9b 53 66 af 5b 94 fc
       -25 32 76 80 63 -101 124 -15 87 -101 83 102 -81 91 -108 -4
0000c0 c7 bf 4a af 4d 7a a2 48 4b 6d 63 3d ac a8 58 5b
       -57 -65 74 -81 77 122 -94 72 75 109 99 61 -84 -88 88 91
0000d0 fc 9f a5 52 55 81 5d 9d d6 4f d4 93 5f 5d be c5
       -4 -97 -91 82 85 -127 93 -99 -42 79 -44 -109 95 93 -66 -59
0000e0 5c 48 7d 47 3d c1 28 47 a7 56 0f aa 4c 9e 4d f2
       92 72 125 71 61 -63 40 71 -89 86 15 -86 76 -98 77 -14
0000f0 46 76 9e d2 17 c8 4d 37 5c d3 3e 9a 4b 2f 41 a4
       70 118 -98 -46 23 -56 77 55 92 -45 62 -102 75 47 65 -92

tfl.pseudo_qconst11 i1 [336, 1, 1, 56]
000000 a1 44 b8 d6 14 e5 4e f6 b8 1d 03 75 e5 04 27 21
       -95 68 -72 -42 20 -27 78 -10 -72 29 3 117 -27 4 39 33
000010 ce 2a e5 10 d0 7f ea 2c 08 ee 4b f4 f3 af ea 00
       -50 42 -27 16 -48 127 -22 44 8 -18 75 -12 -13 -81 -22 0
000020 26 07 1d 23 c6 da e1 e4 71 31 20 e3 2d fe 0d 56
       38 7 29 35 -58 -38 -31 -28 113 49 32 -29 45 -2 13 86
000030 f6 c2 f5 5a 50 2a 20 19 f9 e6 06 c8 08 ec 19 35
       -10 -62 -11 90 80 42 32 25 -7 -26 6 -56 8 -20 25 53
000040 a5 21 e3 1a 17 03 0b de cb d8 0c 1d a8 fd 08 2a
       -91 33 -29 26 23 3 11 -34 -53 -40 12 29 -88 -3 8 42
000050 0b 29 f0 d4 4c 5e 5e f7 e9 1c 12 1d 1c 9c fc 41
       11 41 -16 -44 76 94 94 -9 -23 28 18 29 28 -100 -4 65
000060 0b 0e 2d 09 8c f0 d6 2e 7f 3a f0 f8 0c eb 2f 34
       11 14 45 9 -116 -16 -42 46 127 58 -16 -8 12 -21 47 52
000070 ce d8 06 c9 b9 b1 ce f7 fb 2a 50 ba 20 32 58 5c
       -50 -40 6 -55 -71 -79 -50 -9 -5 42 80 -70 32 50 88 92
000080 07 de dd c5 e5 4d 08 0d 02 03 50 06 18 df f7 bc
       7 -34 -35 -59 -27 77 8 13 2 3 80 6 24 -33 -9 -68
000090 aa 06 f7 f1 3a bd cf fe 05 45 05 e8 f8 be ce 1e
       -86 6 -9 -15 58 -67 -49 -2 5 69 5 -24 -8 -66 -50 30
0000a0 81 2b bb 47 b9 1f 2e 47 f0 39 ef d7 10 f8 fa 07
       -127 43 -69 71 -71 31 46 71 -16 57 -17 -41 16 -8 -6 7
0000b0 6a 2a e6 3e d7 f0 fc b7 fe 1f 37 19 d4 d6 ec 43
       106 42 -26 62 -41 -16 -4 -73 -2 31 55 25 -44 -42 -20 67
0000c0 06 d5 de 09 df d8 fc f2 16 2f 37 c2 c9 5c 8d b4
       6 -43 -34 9 -33 -40 -4 -14 22 47 55 -62 -55 92 -115 -76
0000d0 17 b6 93 de 42 68 e2 76 6c 4c fa 09 9b c3 81 a6
       23 -74 -109 -34 66 104 -30 118 108 76 -6 9 -101 -61 -127 -90
0000e0 e2 f3 7f ec 17 00 e6 1e dd 38 f8 bc 19 3d 15 e3
       -30 -13 127 -20 23 0 -26 30 -35 56 -8 -68 25 61 21 -29
0000f0 e5 c1 34 2c 3c 14 f1 ff ea e4 40 d2 1a 3c 30 21
       -27 -63 52 44 60 20 -15 -1 -22 -28 64 -46 26 60 48 33

tfl.pseudo_qconst13 i1 [56, 1, 1, 336]
000000 0d 1c 0c 05 fb 01 fb 00 0d 01 f4 f4 f8 06 0d f5
       13 28 12 5 -5 1 -5 0 13 1 -12 -12 -8 6 13 -11
000010 0c 0c ee f3 f6 13 f4 e0 21 0a 0c f3 2e 0c cc 01
       12 12 -18 -13 -10 19 -12 -32 33 10 12 -13 46 12 -52 1
000020 1e fc 10 f4 0e 0f 04 f5 1c f1 22 fb 06 13 0e f9
       30 -4 16 -12 14 15 4 -11 28 -15 34 -5 6 19 14 -7
000030 02 09 00 ff e4 23 17 dd ec 18 fe 00 24 34 fc ff
       2 9 0 -1 -28 35 23 -35 -20 24 -2 0 36 52 -4 -1
000040 fe 02 fd 08 09 d9 e3 f1 16 26 02 81 04 07 fb 22
       -2 2 -3 8 9 -39 -29 -15 22 38 2 -127 4 7 -5 34
000050 0d 08 f5 f1 17 11 12 1f fe 14 f6 f8 12 08 15 03
       13 8 -11 -15 23 17 18 31 -2 20 -10 -8 18 8 21 3
000060 f7 f0 16 12 0b 03 04 16 e7 f0 fc 07 f9 06 08 fa
       -9 -16 22 18 11 3 4 22 -25 -16 -4 7 -7 6 8 -6
000070 db e2 05 0a 03 1f ed c3 e8 fb 1f 10 f3 00 fa 19
       -37 -30 5 10 3 31 -19 -61 -24 -5 31 16 -13 0 -6 25
000080 08 f6 f1 f7 2d 09 0e 01 07 f3 08 3e f9 15 19 10
       8 -10 -15 -9 45 9 14 1 7 -13 8 62 -7 21 25 16
000090 f9 10 0e 0e e9 04 ea eb 14 08 e3 0f 21 f2 04 02
       -7 16 14 14 -23 4 -22 -21 20 8 -29 15 33 -14 4 2
0000a0 f8 f1 37 0e 0b 07 21 16 fb 00 f9 12 06 0c 0f eb
       -8 -15 55 14 11 7 33 22 -5 0 -7 18 6 12 15 -21
0000b0 0b f4 ff 05 06 f9 0e 1a fe 1c fc e2 0c 0a fa fa
       11 -12 -1 5 6 -7 14 26 -2 28 -4 -30 12 10 -6 -6
0000c0 0a 05 f5 e8 03 1e 04 0c 04 f9 16 2c 1f 1b 21 fa
       10 5 -11 -24 3 30 4 12 4 -7 22 44 31 27 33 -6
0000d0 03 17 16 11 09 0d 07 19 d5 f4 0e 03 0c 05 06 36
       3 23 22 17 9 13 7 25 -43 -12 14 3 12 5 6 54
0000e0 d0 10 0f fc 01 09 f7 1b ff f7 fd 1c f5 05 df 10
       -48 16 15 -4 1 9 -9 27 -1 -9 -3 28 -11 5 -33 16
0000f0 1b 13 fe 00 fc 13 1d fe 12 fd 32 fb 14 05 f4 f8
       27 19 -2 0 -4 19 29 -2 18 -3 50 -5 20 5 -12 -8

tfl.pseudo_qconst15 i1 [1, 3, 3, 336]
000000 fc 12 61 0c ca 17 e1 2c 25 1c 11 c1 0b f2 f4 07
       -4 18 97 12 -54 23 -31 44 37 28 17 -63 11 -14 -12 7
000010 21 df e8 f1 13 de fe 02 8d da 20 4a 21 22 fb dc
       33 -33 -24 -15 19 -34 -2 2 -115 -38 32 74 33 34 -5 -36
000020 c2 f8 28 db 45 4e 10 0f fa 35 09 da c6 00 06 26
       -62 -8 40 -37 69 78 16 15 -6 53 9 -38 -58 0 6 38
000030 74 f5 1d ef 0e 4d 7d e2 00 0b 25 f4 a2 29 11 81
       116 -11 29 -17 14 77 125 -30 0 11 37 -12 -94 41 17 -127
000040 1f ff 32 2e 21 0a f4 e4 b5 fa 06 e2 dd 1f 7f 20
       31 -1 50 46 33 10 -12 -28 -75 -6 6 -30 -35 31 127 32
000050 05 d1 23 e7 eb 1b 12 a5 29 06 ed dc fc a0 f9 2f
       5 -47 35 -25 -21 27 18 -91 41 6 -19 -36 -4 -96 -7 47
000060 a6 fe 0f e4 34 c9 30 01 0a 22 1d d7 df ea 19 db
       -90 -2 15 -28 52 -55 48 1 10 34 29 -41 -33 -22 25 -37
000070 df 7f d8 fc 09 57 09 cf 17 77 51 fd 0e 05 76 09
       -33 127 -40 -4 9 87 9 -49 23 119 81 -3 14 5 118 9
000080 0f fc 23 0b f9 04 c2 13 e8 f0 0a 11 e0 17 d8 1e
       15 -4 35 11 -7 4 -62 19 -24 -16 10 17 -32 23 -40 30
000090 c1 07 fe 50 f8 1b 1b fe d3 1b ac f6 e2 23 3d 21
       -63 7 -2 80 -8 27 27 -2 -45 27 -84 -10 -30 35 61 33
0000a0 f3 1a 26 b7 0c 61 2b 04 07 fb f8 07 84 07 a9 4a
       -13 26 38 -73 12 97 43 4 7 -5 -8 7 -124 7 -87 74
0000b0 0e 1d 02 12 00 d1 08 07 e7 18 1d ed dc 17 df 52
       14 29 2 18 0 -47 8 7 -25 24 29 -19 -36 23 -33 82
0000c0 3c 18 0c ed cf 43 02 fe 01 30 fd 6d 26 10 c7 ac
       60 24 12 -19 -49 67 2 -2 1 48 -3 109 38 16 -57 -84
0000d0 1f 50 7f 3d 0d f1 f6 b4 02 06 1c f2 df 6b 1f 49
       31 80 127 61 13 -15 -10 -76 2 6 28 -14 -33 107 31 73
0000e0 15 0b 15 04 25 c1 87 0f de 22 1f f1 10 3e d3 20
       21 11 21 4 37 -63 -121 15 -34 34 31 -15 16 62 -45 32
0000f0 0b 13 4d 10 d6 e1 e9 28 b7 df 25 a7 0c 0a ce e0
       11 19 77 16 -42 -31 -23 40 -73 -33 37 -89 12 10 -50 -32

tfl.pseudo_qconst17 i1 [336, 1, 1, 56]
000000 96 31 0f 13 e6 d1 dc 16 fb d2 53 df e8 d6 b4 25
       -106 49 15 19 -26 -47 -36 22 -5 -46 83 -33 -24 -42 -76 37
000010 05 f7 d6 f8 08 26 2b f2 f7 ba 40 d5 2f 51 14 ff
       5 -9 -42 -8 8 38 43 -14 -9 -70 64 -43 47 81 20 -1
000020 c0 fa fa fe 1a 0f cc 2f 14 db f6 c6 23 3b 7f 00
       -64 -6 -6 -2 26 15 -52 47 20 -37 -10 -58 35 59 127 0
000030 5d c6 d8 b6 da 26 c2 bd e0 d6 08 32 1f 1c e2 1c
       93 -58 -40 -74 -38 38 -62 -67 -32 -42 8 50 31 28 -30 28
000040 f3 ea 45 fa d9 02 1a fc 25 bc 35 05 df 85 3c 1a
       -13 -22 69 -6 -39 2 26 -4 37 -68 53 5 -33 -123 60 26
000050 62 04 23 ba 2b 4d 04 d6 aa cb d1 0c 89 81 1b 42
       98 4 35 -70 43 77 4 -42 -86 -53 -47 12 -119 -127 27 66
000060 f5 16 f3 68 db cf 50 c2 21 17 d0 e0 f8 d6 16 47
       -11 22 -13 104 -37 -49 80 -62 33 23 -48 -32 -8 -42 22 71
000070 ec 34 c4 27 fa 14 81 35 40 17 0a 11 e5 d5 b9 d5
       -20 52 -60 39 -6 20 -127 53 64 23 10 17 -27 -43 -71 -43
000080 b9 c6 16 1e 6f c6 f4 d1 ea bc 1e f2 e9 1f ea f4
       -71 -58 22 30 111 -58 -12 -47 -22 -68 30 -14 -23 31 -22 -12
000090 d9 e9 09 15 18 45 c7 f9 e2 f7 04 fc 4b 1c db 35
       -39 -23 9 21 24 69 -57 -7 -30 -9 4 -4 75 28 -37 53
0000a0 ed e8 aa 94 51 25 2c c9 f2 35 33 d7 e5 bc 44 ce
       -19 -24 -86 -108 81 37 44 -55 -14 53 51 -41 -27 -68 68 -50
0000b0 7f 71 97 c2 de 1b 2f fa c5 5c 03 b9 2a d6 2e 59
       127 113 -105 -62 -34 27 47 -6 -59 92 3 -71 42 -42 46 89
0000c0 5c ff a8 22 fa db 12 0a 09 e6 dc 3f da 1b ef 0f
       92 -1 -88 34 -6 -37 18 10 9 -26 -36 63 -38 27 -17 15
0000d0 40 dc 05 03 ec f4 d3 f7 21 ed a3 04 05 2b 0d 17
       64 -36 5 3 -20 -12 -45 -9 33 -19 -93 4 5 43 13 23
0000e0 3c 74 12 bc e8 26 ed 38 2b 16 e8 b9 30 05 41 f5
       60 116 18 -68 -24 38 -19 56 43 22 -24 -71 48 5 65 -11
0000f0 25 f0 cc 2b ce e5 17 dd 59 03 f3 0a ed 24 fe ee
       37 -16 -52 43 -50 -27 23 -35 89 3 -13 10 -19 36 -2 -18

tfl.pseudo_qconst19 i1 [56, 1, 1, 336]
000000 ed fb fa 31 0e ba 0f f9 25 f6 07 1e 0f 0e 01 17
       -19 -5 -6 49 14 -70 15 -7 37 -10 7 30 15 14 1 23
000010 23 11 f1 f9 10 02 fd 81 f4 00 07 09 22 04 f4 0f
       35 17 -15 -7 16 2 -3 -127 -12 0 7 9 34 4 -12 15
000020 0e e2 30 07 2b 23 18 de 19 3d f7 14 19 0c f3 fa
       14 -30 48 7 43 35 24 -34 25 61 -9 20 25 12 -13 -6
000030 d6 07 0a 1f 15 02 e7 fe 11 01 fa 1a 0f 5f 14 f4
       -42 7 10 31 21 2 -25 -2 17 1 -6 26 15 95 20 -12
000040 f8 03 33 36 48 2d 04 08 03 ef 44 ef 12 29 09 20
       -8 3 51 54 72 45 4 8 3 -17 68 -17 18 41 9 32
000050 19 19 45 3a 29 e2 f2 07 08 2e 02 05 d5 1e e5 f5
       25 25 69 58 41 -30 -14 7 8 46 2 5 -43 30 -27 -11
000060 d1 ec 06 df 20 f2 1a 15 0d 0d 1f f3 17 13 f0 09
       -47 -20 6 -33 32 -14 26 21 13 13 31 -13 23 19 -16 9
000070 f8 e3 15 e9 d9 07 e5 f1 1d e3 11 04 08 0c 08 f1
       -8 -29 21 -23 -39 7 -27 -15 29 -29 17 4 8 12 8 -15
000080 05 25 e1 09 14 27 20 fd 20 2b 3e f2 21 ef ef 0c
       5 37 -31 9 20 39 32 -3 32 43 62 -14 33 -17 -17 12
000090 ed 09 34 14 08 fa 21 0c cc 1a 13 2d 0d 18 38 01
       -19 9 52 20 8 -6 33 12 -52 26 19 45 13 24 56 1
0000a0 f5 c4 e6 11 d7 03 f9 2c c2 f8 0c 0f 20 43 09 02
       -11 -60 -26 17 -41 3 -7 44 -62 -8 12 15 32 67 9 2
0000b0 f0 28 1a 01 e5 45 ea 19 ec fc 0a ef f8 f4 e2 60
       -16 40 26 1 -27 69 -22 25 -20 -4 10 -17 -8 -12 -30 96
0000c0 27 19 1a 30 22 31 20 ee 18 fe 2e f3 18 13 1f 00
       39 25 26 48 34 49 32 -18 24 -2 46 -13 24 19 31 0
0000d0 00 1c 13 2d fc 2f 50 e4 1f 25 2c 0e 12 25 15 16
       0 28 19 45 -4 47 80 -28 31 37 44 14 18 37 21 22
0000e0 ff 14 19 fe 17 16 22 0a 16 da 3b 19 24 0f 0f ef
       -1 20 25 -2 23 22 34 10 22 -38 59 25 36 15 15 -17
0000f0 db 2c fd 21 1c e9 28 35 e7 f8 0d 27 11 fe 0f 3d
       -37 44 -3 33 28 -23 40 53 -25 -8 13 39 17 -2 15 61

tfl.pseudo_qconst21 i1 [1, 3, 3, 336]
000000 d6 55 11 2d 16 37 f0 24 00 ea fd 13 90 17 9a 1c
       -42 85 17 45 22 55 -16 36 0 -22 -3 19 -112 23 -102 28
000010 0c 2d ef cd 27 14 1f a9 f7 ce 39 14 0a ec d1 fc
       12 45 -17 -51 39 20 31 -87 -9 -50 57 20 10 -20 -47 -4
000020 0a 0e 12 d1 ff 0e 35 fe ba fa ed fd ff 1c e0 f7
       10 14 18 -47 -1 14 53 -2 -70 -6 -19 -3 -1 28 -32 -9
000030 8c 01 02 99 f7 b5 e3 e8 10 06 1e f6 1b 0e 06 7f
       -116 1 2 -103 -9 -75 -29 -24 16 6 30 -10 27 14 6 127
000040 bc a4 17 f9 16 12 0f 30 e4 18 1b d5 31 39 11 18
       -68 -92 23 -7 22 18 15 48 -28 24 27 -43 49 57 17 24
000050 08 36 13 2e 05 93 b0 2b f7 fb 39 10 cb 08 5f e8
       8 54 19 46 5 -109 -80 43 -9 -5 57 16 -53 8 95 -24
000060 05 1c f5 7f 63 f8 01 24 21 fc ed 1c e3 5c da 1d
       5 28 -11 127 99 -8 1 36 33 -4 -19 28 -29 92 -38 29
000070 16 81 db ed 0d 23 de 33 ec f6 fd 54 1e 01 9a eb
       22 -127 -37 -19 13 35 -34 51 -20 -10 -3 84 30 1 -102 -21
000080 8a ed ce 1a f4 16 03 f9 0b f8 ee 11 fc 1c 9f ff
       -118 -19 -50 26 -12 22 3 -7 11 -8 -18 17 -4 28 -97 -1
000090 e3 f9 03 e1 19 a6 28 36 3f 38 08 13 ec 2e 10 19
       -29 -7 3 -31 25 -90 40 54 63 56 8 19 -20 46 16 25
0000a0 0b e5 7f f6 4e f4 1f f5 f1 2c ea e6 14 28 17 1c
       11 -27 127 -10 78 -12 31 -11 -15 44 -22 -26 20 40 23 28
0000b0 e3 81 10 f6 ea 17 1a 14 18 14 0a d9 01 fb 1a ef
       -29 -127 16 -10 -22 23 26 20 24 20 10 -39 1 -5 26 -17
0000c0 ff f5 e9 16 16 23 23 db 18 ce c9 05 1b fc 84 8e
       -1 -11 -23 22 22 35 35 -37 24 -50 -55 5 27 -4 -124 -114
0000d0 42 1a 81 11 e8 01 1e 09 1f 20 e9 21 2d f7 09 0c
       66 26 -127 17 -24 1 30 9 31 32 -23 33 45 -9 9 12
0000e0 3b 4f 18 0c 35 27 24 d7 1d a6 02 f4 0b 0e 81 e3
       59 79 24 12 53 39 36 -41 29 -90 2 -12 11 14 -127 -29
0000f0 0a 02 10 36 21 0f 45 0a 02 f5 81 92 26 08 fc 13
       10 2 16 54 33 15 69 10 2 -11 -127 -110 38 8 -4 19

tfl.pseudo_qconst23 i1 [336, 1, 1, 56]
000000 06 e6 c8 63 eb 97 4b 20 fa b2 b8 5c bb 19 0f 2e
       6 -26 -56 99 -21 -105 75 32 -6 -78 -72 92 -69 25 15 46
000010 d5 81 00 2e d1 0e 4b 00 21 07 d9 e4 40 6e 0f 0f
       -43 -127 0 46 -47 14 75 0 33 7 -39 -28 64 110 15 15
000020 dd 18 1a fe eb 28 2c 16 2f fd ce e9 5e 2b fa 32
       -35 24 26 -2 -21 40 44 22 47 -3 -50 -23 94 43 -6 50
000030 06 f8 92 c7 18 18 23 98 cf 04 06 e7 18 02 b6 e6
       6 -8 -110 -57 24 24 35 -104 -49 4 6 -25 24 2 -74 -26
000040 14 2c 15 f8 03 12 46 ec ec ed 44 05 f3 15 7f 03
       20 44 21 -8 3 18 70 -20 -20 -19 68 5 -13 21 127 3
000050 25 19 22 f5 06 eb e4 f8 04 06 0d c3 09 fa 03 fd
       37 25 34 -11 6 -21 -28 -8 4 6 13 -61 9 -6 3 -3
000060 fe 0b 21 fd 31 20 0f e4 f4 fd ef 15 1b e6 df ec
       -2 11 33 -3 49 32 15 -28 -12 -3 -17 21 27 -26 -33 -20
000070 1a d3 01 b9 1c 00 82 8a 05 08 dc 15 37 6a eb 72
       26 -45 1 -71 28 0 -126 -118 5 8 -36 21 55 106 -21 114
000080 fb 05 c0 3a 15 e9 d7 7f 2b 26 a1 1b 63 f9 f6 12
       -5 5 -64 58 21 -23 -41 127 43 38 -95 27 99 -7 -10 18
000090 71 e3 23 dc aa e4 51 ee 07 3c 1b 4a fd 2f 1f ad
       113 -29 35 -36 -86 -28 81 -18 7 60 27 74 -3 47 31 -83
0000a0 05 d5 9a b3 26 d4 eb 2d 5d f2 eb f2 3c d4 35 14
       5 -43 -102 -77 38 -44 -21 45 93 -14 -21 -14 60 -44 53 20
0000b0 07 43 21 04 e6 29 e5 11 0b 25 11 ee f1 fd 11 20
       7 67 33 4 -26 41 -27 17 11 37 17 -18 -15 -3 17 32
0000c0 02 ed dc 36 05 af fc fe 06 02 03 f8 29 29 e8 09
       2 -19 -36 54 5 -81 -4 -2 6 2 3 -8 41 41 -24 9
0000d0 81 fa 08 1e eb 06 f4 16 0a 32 2c 0d 31 f0 fe e6
       -127 -6 8 30 -21 6 -12 22 10 50 44 13 49 -16 -2 -26
0000e0 01 0a df b6 ee dd 42 38 42 81 ea cf 0b fc a8 13
       1 10 -33 -74 -18 -35 66 56 66 -127 -22 -49 11 -4 -88 19
0000f0 f3 f9 0a 2a 1f ed c6 f8 23 12 17 ef c6 10 00 38
       -13 -7 10 42 31 -19 -58 -8 35 18 23 -17 -58 16 0 56

tfl.pseudo_qconst25 i1 [56, 1, 1, 192]
000000 e2 5c 0a f0 07 0c d8 10 f2 f4 06 23 d2 0e d3 27
       -30 92 10 -16 7 12 -40 16 -14 -12 6 35 -46 14 -45 39
000010 fa e7 49 0f ff 29 12 de ff f2 2c 34 da 03 fc 07
       -6 -25 73 15 -1 41 18 -34 -1 -14 44 52 -38 3 -4 7
000020 10 19 25 0d e9 0d 06 f8 ef fb f0 01 1d 1f 1f 16
       16 25 37 13 -23 13 6 -8 -17 -5 -16 1 29 31 31 22
000030 1f e5 dd e5 f7 f3 16 05 04 32 09 04 fa 03 b7 19
       31 -27 -35 -27 -9 -13 22 5 4 50 9 4 -6 3 -73 25
000040 01 0b 0f 28 02 4d 25 3b d8 c9 f2 3c 37 12 03 07
       1 11 15 40 2 77 37 59 -40 -55 -14 60 55 18 3 7
000050 fc e7 1a db 47 fc 01 12 f5 ff f1 20 1e 27 0a 07
       -4 -25 26 -37 71 -4 1 18 -11 -1 -15 32 30 39 10 7
000060 09 25 40 c2 06 fa f8 1d 28 f9 f4 e8 2e de 0f 09
       9 37 64 -62 6 -6 -8 29 40 -7 -12 -24 46 -34 15 9
000070 21 f2 eb b8 2a e1 da 3f af 35 1c bf 81 10 14 09
       33 -14 -21 -72 42 -31 -38 63 -81 53 28 -65 -127 16 20 9
000080 ed fe ea e5 16 05 f0 36 23 fc f1 1f 07 0e 28 ec
       -19 -2 -22 -27 22 5 -16 54 35 -4 -15 31 7 14 40 -20
000090 d5 f2 14 f5 ed 12 ce 0b 3a f6 04 22 3d ed 39 e7
       -43 -14 20 -11 -19 18 -50 11 58 -10 4 34 61 -19 57 -25
0000a0 47 ee 09 19 02 d9 25 0b c8 b9 18 ef 5c f4 1c 40
       71 -18 9 25 2 -39 37 11 -56 -71 24 -17 92 -12 28 64
0000b0 f0 ef 06 0a da fe 26 2d f5 fe ef 01 b9 08 fc f3
       -16 -17 6 10 -38 -2 38 45 -11 -2 -17 1 -71 8 -4 -13
0000c0 f9 20 47 0a ee fd bf 34 f6 e7 b5 13 0e ea b5 f4
       -7 32 71 10 -18 -3 -65 52 -10 -25 -75 19 14 -22 -75 -12
0000d0 39 d9 c7 e6 01 1e 0a f4 fa 02 f8 31 fc fb d6 31
       57 -39 -57 -26 1 30 10 -12 -6 2 -8 49 -4 -5 -42 49
0000e0 ea e8 45 dd 30 c2 62 20 d3 81 3e ff b0 2a c2 1b
       -22 -24 69 -35 48 -62 98 32 -45 -127 62 -1 -80 42 -62 27
0000f0 fd da 92 0e 10 c9 ea 93 09 11 b1 22 d8 da f2 d0
       -3 -38 -110 14 16 -55 -22 -109 9 17 -79 34 -40 -38 -14 -48

tfl.pseudo_qconst27 i1 [1, 3, 3, 192]
000000 52 4a c3 c7 4e ab 46 53 b5 a6 b5 bc 46 45 c2 d0
       82 74 -61 -57 78 -85 70 83 -75 -90 -75 -68 70 69 -62 -48
000010 4d 9a bf 49 4a 6d bc 3d 54 39 3b 48 be c3 e9 49
       77 -102 -65 73 74 109 -68 61 84 57 59 72 -66 -61 -23 73
000020 50 62 9b 55 4f 33 4f bf bb c2 af 31 48 49 3b 4a
       80 98 -101 85 79 51 79 -65 -69 -62 -81 49 72 73 59 74
000030 a9 af 54 c2 42 68 c1 5d 4a 9b 36 a1 b9 6d 3d 42
       -87 -81 84 -62 66 104 -63 93 74 -101 54 -95 -71 109 61 66
000040 a8 c3 49 46 b1 a9 50 bb 65 4c 5b bd 40 49 9c 44
       -88 -61 73 70 -79 -87 80 -69 101 76 91 -67 64 73 -100 68
000050 55 c0 50 6a 51 bb 58 48 54 90 4a 4c 46 46 39 b9
       85 -64 80 106 81 -69 88 72 84 -112 74 76 70 70 57 -71
000060 ba 66 64 4c 48 b9 c5 4c 4b 4c 50 46 c6 68 3b 4e
       -70 102 100 76 72 -71 -59 76 75 76 80 70 -58 104 59 78
000070 b2 4d 3e cb c2 b4 4e 47 3d c0 3a 43 c3 ae a3 47
       -78 77 62 -53 -62 -76 78 71 61 -64 58 67 -61 -82 -93 71
000080 3a 4c 4a b3 a9 40 53 c8 f0 c4 cb 49 40 ac a2 3c
       58 76 74 -77 -87 64 83 -56 -16 -60 -53 73 64 -84 -94 60
000090 ba 48 bc 44 ba aa 39 40 8d 5d c5 b3 37 58 c9 b8
       -70 72 -68 68 -70 -86 57 64 -115 93 -59 -77 55 88 -55 -72
0000a0 4d 9d 4b 8e 5c 4b b6 3f be d4 bb 60 40 bd 47 39
       77 -99 75 -114 92 75 -74 63 -66 -44 -69 96 64 -67 71 57
0000b0 4a 50 c6 53 8a 44 56 4c ea 4a 5a 31 44 47 b7 44
       74 80 -58 83 -118 68 86 76 -22 74 90 49 68 71 -73 68
0000c0 65 5b ab ab 64 97 54 6d a0 8e 9f a1 5c 5f ae bb
       101 91 -85 -85 100 -105 84 109 -96 -114 -97 -95 92 95 -82 -69
0000d0 59 81 a3 59 59 f2 9f 53 62 4a 51 5e aa ac fb 61
       89 -127 -93 89 89 -14 -97 83 98 74 81 94 -86 -84 -5 97
0000e0 60 d8 81 6e 63 42 5d a5 a8 b1 9f 41 5c 64 4f 58
       96 -40 -127 110 99 66 93 -91 -88 -79 -97 65 92 100 79 88
0000f0 4a 98 62 ad 59 7f ae 76 5e 17 51 95 a6 7f 54 51
       74 -104 98 -83 89 127 -82 118 94 23 81 -107 -90 127 84 81

tfl.pseudo_qconst29 i1 [192, 1, 1, 32]
000000 f4 cd 11 0f f5 da f1 40 e1 ec 16 10 81 f4 05 f1
       -12 -51 17 15 -11 -38 -15 64 -31 -20 22 16 -127 -12 5 -15
000010 e1 b6 e0 54 ec 15 ef df 0f d9 dc d4 f8 87 04 08
       -31 -74 -32 84 -20 21 -17 -33 15 -39 -36 -44 -8 -121 4 8
000020 02 e2 e6 0e ca f5 07 1e 10 e6 81 f3 10 22 fe 13
       2 -30 -26 14 -54 -11 7 30 16 -26 -127 -13 16 34 -2 19
000030 da f3 12 c0 d8 1e e3 f5 13 cf db 23 ce fa ff f0
       -38 -13 18 -64 -40 30 -29 -11 19 -49 -37 35 -50 -6 -1 -16
000040 36 e9 37 a6 53 ff fc 00 16 e3 20 17 0a fb 66 16
       54 -23 55 -90 83 -1 -4 0 22 -29 32 23 10 -5 102 22
000050 d4 c6 f9 d7 ee 10 fc e7 ee 2e 04 9b 10 03 1a 7f
       -44 -58 -7 -41 -18 16 -4 -25 -18 46 4 -101 16 3 26 127
000060 e7 81 02 f3 ef f4 bf f5 fc fa ea 04 ff 03 f1 d1
       -25 -127 2 -13 -17 -12 -65 -11 -4 -6 -22 4 -1 3 -15 -47
000070 e4 f4 fd fd d8 ff 06 fa 09 15 06 00 18 36 1a 02
       -28 -12 -3 -3 -40 -1 6 -6 9 21 6 0 24 54 26 2
000080 81 f3 e4 f2 ba d9 67 d2 0a d8 d6 18 26 1b fd fb
       -127 -13 -28 -14 -70 -39 103 -46 10 -40 -42 24 38 27 -3 -5
000090 bc cd 1f d7 f9 03 13 f0 2b 1f 03 01 e7 14 43 f9
       -68 -51 31 -41 -7 3 19 -16 43 31 3 1 -25 20 67 -7
0000a0 48 08 f4 d0 3d 3b 04 0b 7f 03 63 20 0e 2b dc dc
       72 8 -12 -48 61 59 4 11 127 3 99 32 14 43 -36 -36
0000b0 d1 2a f5 bf d5 fc cc b8 4b 0b c8 00 15 eb 38 1c
       -47 42 -11 -65 -43 -4 -52 -72 75 11 -56 0 21 -21 56 28
0000c0 ff f4 08 f4 fa 17 da e1 d2 44 fb ff fe 93 05 f9
       -1 -12 8 -12 -6 23 -38 -31 -46 68 -5 -1 -2 -109 5 -7
0000d0 3e f3 0b 0f 1c 00 e4 3a d5 e5 47 36 d5 f0 81 ff
       62 -13 11 15 28 0 -28 58 -43 -27 71 54 -43 -16 -127 -1
0000e0 40 b6 33 05 04 ec 5c ff f3 03 20 0c f0 1d 19 35
       64 -74 51 5 4 -20 92 -1 -13 3 32 12 -16 29 25 53
0000f0 82 5e 05 01 0c 09 d9 23 02 26 0d e9 7f de 1b 39
       -126 94 5 1 12 9 -39 35 2 38 13 -23 127 -34 27 57

tfl.pseudo_qconst31 i1 [32, 1, 1, 192]
000000 d6 09 10 f4 f8 23 e4 a1 0e f2 27 f3 df f5 f6 06
       -42 9 16 -12 -8 35 -28 -95 14 -14 39 -13 -33 -11 -10 6
000010 0e f2 fe 22 ec c7 00 00 11 f3 eb f0 17 d0 09 0b
       14 -14 -2 34 -20 -57 0 0 17 -13 -21 -16 23 -48 9 11
000020 01 0d f7 0c 03 49 1f 01 f6 04 f4 c2 1c 23 0b ed
       1 13 -9 12 3 73 31 1 -10 4 -12 -62 28 35 11 -19
000030 fe 10 cf e6 ed f3 f6 2d fe f6 fe 1f 0e e8 da c5
       -2 16 -49 -26 -19 -13 -10 45 -2 -10 -2 31 14 -24 -38 -59
000040 02 06 d1 ce d9 ec c9 09 01 27 f5 16 01 ee 2b cf
       2 6 -47 -50 -39 -20 -55 9 1 39 -11 22 1 -18 43 -49
000050 e0 e0 22 fd 12 b9 f7 ff fb f2 0f ef 1c 1c 42 04
       -32 -32 34 -3 18 -71 -9 -1 -5 -14 15 -17 28 28 66 4
000060 e6 f0 f7 e1 f9 f6 a3 f4 13 22 0d 1d 2b 2c ea f9
       -26 -16 -9 -31 -7 -10 -93 -12 19 34 13 29 43 44 -22 -7
000070 0b fb ff ed f8 da 01 22 51 07 d4 00 f5 db ed e9
       11 -5 -1 -19 -8 -38 1 34 81 7 -44 0 -11 -37 -19 -23
000080 b5 05 0b 19 00 df 07 16 ef 00 ce 11 0c 26 c3 e7
       -75 5 11 25 0 -33 7 22 -17 0 -50 17 12 38 -61 -25
000090 0a 32 11 e2 e4 b5 fa 19 17 6a 11 14 db 0d dc 17
       10 50 17 -30 -28 -75 -6 25 23 106 17 20 -37 13 -36 23
0000a0 18 ef 7f 15 fe 1c fd f2 19 1b 10 15 30 f6 e7 05
       24 -17 127 21 -2 28 -3 -14 25 27 16 21 48 -10 -25 5
0000b0 e1 04 d0 ef e8 0e 15 0b fc f4 f4 f2 e7 03 2b 56
       -31 4 -48 -17 -24 14 21 11 -4 -12 -12 -14 -25 3 43 86
0000c0 03 f3 12 10 f6 fc 18 19 8c 04 fc 0f 0b ff f3 dd
       3 -13 18 16 -10 -4 24 25 -116 4 -4 15 11 -1 -13 -35
0000d0 a4 e3 06 18 01 fe fe fc f7 02 0c 03 11 25 01 14
       -92 -29 6 24 1 -2 -2 -4 -9 2 12 3 17 37 1 20
0000e0 f7 fb 03 0b f9 c5 fe 19 e5 00 fb eb d8 ee fc 57
       -9 -5 3 11 -7 -59 -2 25 -27 0 -5 -21 -40 -18 -4 87
0000f0 11 01 18 d9 ff f9 fc 0c 0b 06 ef 03 ff 2a 05 c5
       17 1 24 -39 -1 -7 -4 12 11 6 -17 3 -1 42 5 -59

tfl.pseudo_qconst33 i1 [1, 3, 3, 192]
000000 44 7f 09 26 e7 fd fc b0 fe f1 0a 21 37 f5 07 a6
       68 127 9 38 -25 -3 -4 -80 -2 -15 10 33 55 -11 7 -90
000010 49 0e 0a 05 f2 34 15 74 e9 eb 11 e8 19 12 7a aa
       73 14 10 5 -14 52 21 116 -23 -21 17 -24 25 18 122 -86
000020 d2 0a d1 eb ec f7 83 22 98 2f f0 83 19 3e b9 ed
       -46 10 -47 -21 -20 -9 -125 34 -104 47 -16 -125 25 62 -71 -19
000030 1c 1c fa ec f3 30 0e d0 ee 49 0e e2 d7 f1 ff df
       28 28 -6 -20 -13 48 14 -48 -18 73 14 -30 -41 -15 -1 -33
000040 3e c4 16 17 ef b5 31 fe ea cf ff 18 03 0e 90 f2
       62 -60 22 23 -17 -75 49 -2 -22 -49 -1 24 3 14 -112 -14
000050 13 ec f5 06 1c 2a f6 ec 20 42 a5 41 53 2a e5 db
       19 -20 -11 6 28 42 -10 -20 32 66 -91 65 83 42 -27 -37
000060 32 dc d0 14 10 0c 0d cf 2d ea f7 22 f5 20 f7 03
       50 -36 -48 20 16 12 13 -49 45 -22 -9 34 -11 32 -9 3
000070 0d 10 21 d6 95 e1 81 08 e7 0e e7 62 dd d8 36 a3
       13 16 33 -42 -107 -31 -127 8 -25 14 -25 98 -35 -40 54 -93
000080 2b f5 e9 30 2e fc 09 22 d4 2a 13 be 7f eb d4 3a
       43 -11 -23 48 46 -4 9 34 -44 42 19 -66 127 -21 -44 58
000090 e7 09 cd 18 35 0b 2d 15 8e 01 fb 0f 20 0d fd 04
       -25 9 -51 24 53 11 45 21 -114 1 -5 15 32 13 -3 4
0000a0 0a c2 1c 33 d8 ed 07 03 4e 1c 15 ac fb 43 cc 03
       10 -62 28 51 -40 -19 7 3 78 28 21 -84 -5 67 -52 3
0000b0 20 ef 1e d1 08 40 1b f4 f4 0e 0b 81 fd 29 0b d2
       32 -17 30 -47 8 64 27 -12 -12 14 11 -127 -3 41 11 -46
0000c0 7d fd 10 81 bd da 03 87 26 25 82 10 7b 17 18 5c
       125 -3 16 -127 -67 -38 3 -121 38 37 -126 16 123 23 24 92
0000d0 8d 04 fe cf ff 4d f9 7e 7c f1 1f 15 18 15 7f 81
       -115 4 -2 -49 -1 77 -7 126 124 -15 31 21 24 21 127 -127
0000e0 17 7f 81 46 13 e3 ce e1 a0 e6 b5 15 4f ad 1c d4
       23 127 -127 70 19 -29 -50 -31 -96 -26 -75 21 79 -83 28 -44
0000f0 14 26 7f 36 e8 7f 40 98 c6 4f ff d3 a3 1a 34 9d
       20 38 127 54 -24 127 64 -104 -58 79 -1 -45 -93 26 52 -99

tfl.pseudo_qconst35 i1 [192, 1, 1, 32]
000000 97 2c 7f 1b 09 0d 1e ff 14 f1 cf 3c 61 2f cc b6
       -105 44 127 27 9 13 30 -1 20 -15 -49 60 97 47 -52 -74
000010 ab d6 0b 24 cd bc f9 03 01 08 e8 fb f3 3c e8 fd
       -85 -42 11 36 -51 -68 -7 3 1 8 -24 -5 -13 60 -24 -3
000020 c0 e3 81 1b 02 e8 ea e6 18 9a 16 dc 10 1b 13 2b
       -64 -29 -127 27 2 -24 -22 -26 24 -102 22 -36 16 27 19 43
000030 dc d8 ec 24 08 c9 5e dc 0f f6 3d 17 fa de d6 1b
       -36 -40 -20 36 8 -55 94 -36 15 -10 61 23 -6 -34 -42 27
000040 24 17 c4 3d 1d fd fc 29 10 0c 02 09 b1 e2 cc b3
       36 23 -60 61 29 -3 -4 41 16 12 2 9 -79 -30 -52 -77
000050 81 cb 0f 06 ef eb d9 39 41 b2 23 e1 51 ad 36 c9
       -127 -53 15 6 -17 -21 -39 57 65 -78 35 -31 81 -83 54 -55
000060 0e f0 64 f6 00 25 ed a7 ed f2 ef fc e0 16 dc 30
       14 -16 100 -10 0 37 -19 -89 -19 -14 -17 -4 -32 22 -36 48
000070 23 f5 d1 e2 17 27 00 11 21 81 ca 14 de eb f8 15
       35 -11 -47 -30 23 39 0 17 33 -127 -54 20 -34 -21 -8 21
000080 94 1b e6 42 10 f1 07 48 16 40 42 99 7e 52 de e0
       -108 27 -26 66 16 -15 7 72 22 64 66 -103 126 82 -34 -32
000090 0e 2b c3 ec ae d6 1d 7c bf 81 07 ef 1b 44 b0 07
       14 43 -61 -20 -82 -42 29 124 -65 -127 7 -17 27 68 -80 7
0000a0 0a 07 ec e7 ad 1b 7f 11 e2 e6 22 0f ee 0d f8 57
       10 7 -20 -25 -83 27 127 17 -30 -26 34 15 -18 13 -8 87
0000b0 e4 23 01 fc dc ff 18 08 1b e0 f8 0a ed be 21 00
       -28 35 1 -4 -36 -1 24 8 27 -32 -8 10 -19 -66 33 0
0000c0 10 ce b5 15 2f 2b 12 a9 b8 e7 7f 38 2e b0 d7 ef
       16 -50 -75 21 47 43 18 -87 -72 -25 127 56 46 -80 -41 -17
0000d0 e8 d6 c4 82 27 3a 06 2a 0f d7 59 43 17 14 f4 04
       -24 -42 -60 -126 39 58 6 42 15 -41 89 67 23 20 -12 4
0000e0 7f 27 c2 28 17 e0 22 2f 0d e8 ba dd 25 fc a7 ed
       127 39 -62 40 23 -32 34 47 13 -24 -70 -35 37 -4 -89 -19
0000f0 3d e6 a7 99 bb 20 fe fc 36 c8 0b d3 2c 0e 25 0d
       61 -26 -89 -103 -69 32 -2 -4 54 -56 11 -45 44 14 37 13

tfl.pseudo_qconst37 i1 [32, 1, 1, 192]
000000 0a fd b1 f9 d3 d7 e8 1c 09 e1 f3 df 19 1e ff f3
       10 -3 -79 -7 -45 -41 -24 28 9 -31 -13 -33 25 30 -1 -13
000010 19 05 11 ce 2f ef f7 01 e6 e8 09 f6 ea c0 04 07
       25 5 17 -50 47 -17 -9 1 -26 -24 9 -10 -22 -64 4 7
000020 3f f1 1e 4e 1a 06 00 08 23 94 ca 1e 0d 24 01 f9
       63 -15 30 78 26 6 0 8 35 -108 -54 30 13 36 1 -7
000030 3a bd df 31 d2 e0 28 04 e6 f4 be 7f 4e e2 c7 14
       58 -67 -33 49 -46 -32 40 4 -26 -12 -66 127 78 -30 -57 20
000040 00 fa c9 04 1e f7 f0 17 f5 f0 03 11 ee f3 c8 de
       0 -6 -55 4 30 -9 -16 23 -11 -16 3 17 -18 -13 -56 -34
000050 44 db f3 fc f4 c9 f1 08 11 06 08 fd 10 e3 fb df
       68 -37 -13 -4 -12 -55 -15 8 17 6 8 -3 16 -29 -5 -33
000060 05 ec 2a bd 17 e1 f9 04 e8 0e 32 c0 05 58 2d 00
       5 -20 42 -67 23 -31 -7 4 -24 14 50 -64 5 88 45 0
000070 27 01 e5 ef ff 09 fa 0a f9 0c 00 17 fd 16 1e c2
       39 1 -27 -17 -1 9 -6 10 -7 12 0 23 -3 22 30 -62
000080 14 21 fd c0 f8 25 03 f7 4d 06 16 2a cf 21 ec 00
       20 33 -3 -64 -8 37 3 -9 77 6 22 42 -49 33 -20 0
000090 be f8 04 ea 4d 0d f9 d3 41 f5 24 f0 a3 eb ed d9
       -66 -8 4 -22 77 13 -7 -45 65 -11 36 -16 -93 -21 -19 -39
0000a0 db de dd 16 38 05 12 3b e7 4d dc 0b 1f 24 e9 0b
       -37 -34 -35 22 56 5 18 59 -25 77 -36 11 31 36 -23 11
0000b0 ff c9 15 15 cb 35 0d 27 cd f5 05 01 de ae ca 35
       -1 -55 21 21 -53 53 13 39 -51 -11 5 1 -34 -82 -54 53
0000c0 f9 fd 25 fa fe 1a 03 d7 f7 06 fe fd f4 ff 07 f5
       -7 -3 37 -6 -2 26 3 -41 -9 6 -2 -3 -12 -1 7 -11
0000d0 01 cb ed f7 fe f3 fd 23 04 df 1b ff 09 15 12 e2
       1 -53 -19 -9 -2 -13 -3 35 4 -33 27 -1 9 21 18 -30
0000e0 eb f2 07 eb 81 ec 15 f2 e5 01 34 09 f0 12 f4 f7
       -21 -14 7 -21 -127 -20 21 -14 -27 1 52 9 -16 18 -12 -9
0000f0 14 1d f2 54 0a fc 0e fd e1 d9 e5 ed 1d 1b 0a 0c
       20 29 -14 84 10 -4 14 -3 -31 -39 -27 -19 29 27 10 12

tfl.pseudo_qconst39 i1 [1, 3, 3, 192]
000000 01 e8 f0 da 3f d9 ff 02 03 1a 35 08 f8 0d 15 eb
       1 -24 -16 -38 63 -39 -1 2 3 26 53 8 -8 13 21 -21
000010 e1 81 11 36 07 01 30 13 fb d6 19 0f df bf 4e 25
       -31 -127 17 54 7 1 48 19 -5 -42 25 15 -33 -65 78 37
000020 b1 c7 00 fc b4 f2 de fc e9 af 81 db d0 cc 04 e3
       -79 -57 0 -4 -76 -14 -34 -4 -23 -81 -127 -37 -48 -52 4 -29
000030 15 9a 02 96 35 1d b6 eb f3 06 08 0c df 61 f8 2d
       21 -102 2 -106 53 29 -74 -21 -13 6 8 12 -33 97 -8 45
000040 16 18 cf e9 27 2d 23 28 14 0a ee db e3 b0 fe 08
       22 24 -49 -23 39 45 35 40 20 10 -18 -37 -29 -80 -2 8
000050 9e ec f9 21 19 34 b4 06 0a 89 f3 e8 16 15 24 f9
       -98 -20 -7 33 25 52 -76 6 10 -119 -13 -24 22 21 36 -7
000060 a9 a7 0a 11 e7 f9 d8 0b 02 3e 05 23 f3 cd 09 ec
       -87 -89 10 17 -25 -7 -40 11 2 62 5 35 -13 -51 9 -20
000070 f5 ee 07 f6 fe 0a df 04 ef 5f fd 4d 23 72 f8 7f
       -11 -18 7 -10 -2 10 -33 4 -17 95 -3 77 35 114 -8 127
000080 d8 1c 45 23 fd eb 28 18 25 1d e4 f7 f5 f9 05 2f
       -40 28 69 35 -3 -21 40 24 37 29 -28 -9 -11 -7 5 47
000090 30 29 29 15 bb 14 1d bf 22 fe 2a 9e 0c fd de 22
       48 41 41 21 -69 20 29 -65 34 -2 42 -98 12 -3 -34 34
0000a0 c0 e2 07 10 2f f1 b5 16 0c ae 19 87 2a 2c 1a ae
       -64 -30 7 16 47 -15 -75 22 12 -82 25 -121 42 44 26 -82
0000b0 32 50 1f f1 11 fe 04 02 ee 0d 3e ef ee 16 88 0b
       50 80 31 -15 17 -2 4 2 -18 13 62 -17 -18 22 -120 11
0000c0 06 24 23 81 7f 81 81 af e4 14 05 af 09 02 5d fc
       6 36 35 -127 127 -127 -127 -81 -28 20 5 -81 9 2 93 -4
0000d0 e3 a2 5e 2d 27 f2 7f dc f4 2b 09 10 1b 8d b9 bd
       -29 -94 94 45 39 -14 127 -36 -12 43 9 16 27 -115 -71 -67
0000e0 af 24 52 08 81 f9 7f fb 15 d5 91 81 7f 9f fa 0a
       -81 36 82 8 -127 -7 127 -5 21 -43 -111 -127 127 -97 -6 10
0000f0 06 08 7f b7 7f 71 bd 07 c9 6f 8d 16 f5 7f 7f 7f
       6 8 127 -73 127 113 -67 7 -55 111 -115 22 -11 127 127 127

tfl.pseudo_qconst41 i1 [192, 1, 1, 32]
000000 fd e8 07 d8 15 16 f9 7f f7 ed f4 f9 f1 11 16 26
       -3 -24 7 -40 21 22 -7 127 -9 -19 -12 -7 -15 17 22 38
000010 ed fe f3 f1 2e 0d 0b f9 e7 18 3d 11 0f f0 2c e4
       -19 -2 -13 -15 46 13 11 -7 -25 24 61 17 15 -16 44 -28
000020 10 03 08 ef f8 0b 0d 2b de 48 03 20 fc b0 f3 03
       16 3 8 -17 -8 11 13 43 -34 72 3 32 -4 -80 -13 3
000030 04 f2 cd d7 f3 81 cd 0d d3 14 06 f2 f9 00 ff f5
       4 -14 -51 -41 -13 -127 -51 13 -45 20 6 -14 -7 0 -1 -11
000040 15 fc 17 1d 00 1c 00 51 f8 81 f1 37 10 c5 c1 ee
       21 -4 23 29 0 28 0 81 -8 -127 -15 55 16 -59 -63 -18
000050 61 01 0d ee 0b e7 9d f2 e9 e9 f9 f1 fe f6 33 d1
       97 1 13 -18 11 -25 -99 -14 -23 -23 -7 -15 -2 -10 51 -47
000060 0a 1a ec fc ef fb 29 d1 2e 32 fd 25 1c 2a b8 81
       10 26 -20 -4 -17 -5 41 -47 46 50 -3 37 28 42 -72 -127
000070 db e5 41 ed fd f1 f9 dd 0f 23 cf d5 22 f6 0e 1e
       -37 -27 65 -19 -3 -15 -7 -35 15 35 -49 -43 34 -10 14 30
000080 dc ce 06 44 40 07 e7 28 52 23 d2 08 42 fa a1 1f
       -36 -50 6 68 64 7 -25 40 82 35 -46 8 66 -6 -95 31
000090 c6 fe cc ed da 2a a4 81 29 f5 d8 dd 37 3c 06 e3
       -58 -2 -52 -19 -38 42 -92 -127 41 -11 -40 -35 55 60 6 -29
0000a0 f9 f7 0c bc 06 18 ff 2e b0 1f fc 81 f4 55 33 23
       -7 -9 12 -68 6 24 -1 46 -80 31 -4 -127 -12 85 51 35
0000b0 0d 12 20 0c 48 25 b8 46 42 2f 38 4a 0f 0a 0a dc
       13 18 32 12 72 37 -72 70 66 47 56 74 15 10 10 -36
0000c0 c2 d6 d7 11 1a ef da 4a 00 7f 64 17 fa 6b 09 12
       -62 -42 -41 17 26 -17 -38 74 0 127 100 23 -6 107 9 18
0000d0 fe 57 f2 20 1e 45 7b 30 f8 ce 82 45 f7 11 e4 e9
       -2 87 -14 32 30 69 123 48 -8 -50 -126 69 -9 17 -28 -23
0000e0 34 7f 03 b4 ca 0f 29 25 01 f3 2b 1a 0b f1 07 b9
       52 127 3 -76 -54 15 41 37 1 -13 43 26 11 -15 7 -71
0000f0 ec d4 4e b8 07 f0 21 74 42 07 0d db cb 22 13 2e
       -20 -44 78 -72 7 -16 33 116 66 7 13 -37 -53 34 19 46

tfl.pseudo_qconst43 i1 [32, 1, 1, 144]
000000 fe e0 46 ff 09 e0 18 cc b1 fe 25 fb ff f2 f0 4d
       -2 -32 70 -1 9 -32 24 -52 -79 -2 37 -5 -1 -14 -16 77
000010 79 ff 15 f0 cb 47 03 00 ea 11 ef f6 ec f5 eb fd
       121 -1 21 -16 -53 71 3 0 -22 17 -17 -10 -20 -11 -21 -3
000020 4f ee 14 06 e4 f8 20 01 f3 03 f2 81 37 04 01 02
       79 -18 20 6 -28 -8 32 1 -13 3 -14 -127 55 4 1 2
000030 fc ff 0f cf 05 25 0c 05 18 20 f3 f2 0a e3 2f dd
       -4 -1 15 -49 5 37 12 5 24 32 -13 -14 10 -29 47 -35
000040 f8 14 f0 03 f4 eb 1b 12 fa f7 fb f4 fe 03 00 09
       -8 20 -16 3 -12 -21 27 18 -6 -9 -5 -12 -2 3 0 9
000050 38 15 f1 0f f3 13 fd 04 21 e6 00 07 04 17 fd fe
       56 21 -15 15 -13 19 -3 4 33 -26 0 7 4 23 -3 -2
000060 00 f5 f8 e6 08 01 28 f9 0f 07 bc 00 e2 cd 23 f2
       0 -11 -8 -26 8 1 40 -7 15 7 -68 0 -30 -51 35 -14
000070 ee 24 d6 15 00 e6 38 00 13 f0 04 1a 2c e8 03 fa
       -18 36 -42 21 0 -26 56 0 19 -16 4 26 44 -24 3 -6
000080 fc 0f 03 ed 11 33 00 39 01 71 0a f8 e4 1d e9 f4
       -4 15 3 -19 17 51 0 57 1 113 10 -8 -28 29 -23 -12
000090 0a 01 05 fc 00 1d f1 02 21 07 f5 04 f1 92 ff e5
       10 1 5 -4 0 29 -15 2 33 7 -11 4 -15 -110 -1 -27
0000a0 14 f2 f1 ff 31 f6 ff 00 fe 14 ff 01 e0 08 02 25
       20 -14 -15 -1 49 -10 -1 0 -2 20 -1 1 -32 8 2 37
0000b0 05 f2 0d f8 02 ff fd fd fd fa 1c fd ff 0a f6 f8
       5 -14 13 -8 2 -1 -3 -3 -3 -6 28 -3 -1 10 -10 -8
0000c0 02 12 00 fb 2b ef f6 f8 fa f8 01 f2 e5 fe dd 07
       2 18 0 -5 43 -17 -10 -8 -6 -8 1 -14 -27 -2 -35 7
0000d0 fd fa fc 0c 02 81 e6 f8 fa 06 fd 08 00 0f f3 fe
       -3 -6 -4 12 2 -127 -26 -8 -6 6 -3 8 0 15 -13 -2
0000e0 00 c8 06 f3 09 f1 0a fb 00 13 f7 f2 00 11 ff 0a
       0 -56 6 -13 9 -15 10 -5 0 19 -9 -14 0 17 -1 10
0000f0 10 b2 02 01 f7 03 4f cf f2 11 05 02 0b f8 fb 04
       16 -78 2 1 -9 3 79 -49 -14 17 5 2 11 -8 -5 4

tfl.pseudo_qconst45 i1 [1, 3, 3, 144]
000000 1a f4 13 81 21 fa f8 c2 f2 f7 05 02 fd 07 f9 f0
       26 -12 19 -127 33 -6 -8 -62 -14 -9 5 2 -3 7 -7 -16
000010 ef 07 f2 1d 0e fd df 06 ec f3 f3 fd 08 fc e9 f7
       -17 7 -14 29 14 -3 -33 6 -20 -13 -13 -3 8 -4 -23 -9
000020 ff fc bb f7 13 05 fd 11 f7 31 f8 00 f2 e1 da f9
       -1 -4 -69 -9 19 5 -3 17 -9 49 -8 0 -14 -31 -38 -7
000030 26 00 0f f4 0a 0b aa fb f0 f2 c6 07 12 00 04 f7
       38 0 15 -12 10 11 -86 -5 -16 -14 -58 7 18 0 4 -9
000040 53 01 dc 14 fd fd eb fa fa ee ff fd 0a fe f6 f8
       83 1 -36 20 -3 -3 -21 -6 -6 -18 -1 -3 10 -2 -10 -8
000050 fd 08 f1 0a 05 03 fa 01 fb f9 d8 f7 d4 f2 f5 10
       -3 8 -15 10 5 3 -6 1 -5 -7 -40 -9 -44 -14 -11 16
000060 dc f8 ea f5 07 fc 08 01 cc fc 01 0c fd e8 f9 a8
       -36 -8 -22 -11 7 -4 8 1 -52 -4 1 12 -3 -24 -7 -88
000070 1d fa f5 eb 19 ff 01 08 f9 f4 ff fd fe eb ff f5
       29 -6 -11 -21 25 -1 1 8 -7 -12 -1 -3 -2 -21 -1 -11
000080 03 15 08 1e f6 06 e2 f9 fc 05 d0 0d 01 05 f9 a8
       3 21 8 30 -10 6 -30 -7 -4 5 -48 13 1 5 -7 -88
000090 ed 12 14 f6 7f ff f6 a1 00 07 09 f2 ed 06 ed 00
       -19 18 20 -10 127 -1 -10 -95 0 7 9 -14 -19 6 -19 0
0000a0 14 b3 a0 bf 08 f3 27 07 0a 27 da fa f6 cd af 07
       20 -77 -96 -65 8 -13 39 7 10 39 -38 -6 -10 -51 -81 7
0000b0 15 1a 88 e5 17 7f ff aa ec f0 07 ef 0e ea a1 1b
       21 26 -120 -27 23 127 -1 -86 -20 -16 7 -17 14 -22 -95 27
0000c0 0e 20 67 12 3c 0d 81 35 0c 18 d5 0c ff 0d f9 27
       14 32 103 18 60 13 -127 53 12 24 -43 12 -1 13 -7 39
0000d0 7f 3b ea 7f 32 02 09 ff ed e9 17 bc 7f 14 13 fb
       127 59 -22 127 50 2 9 -1 -19 -23 23 -68 127 20 19 -5
0000e0 fe 01 fd e5 13 16 3d 5d f2 24 a2 59 c2 19 1a 1d
       -2 1 -3 -27 19 22 61 93 -14 36 -94 89 -62 25 26 29
0000f0 f8 01 eb 09 e7 fc fd dd 84 18 15 db d6 bb fc 81
       -8 1 -21 9 -25 -4 -3 -35 -124 24 21 -37 -42 -69 -4 -127

tfl.pseudo_qconst47 i1 [144, 1, 1, 24]
000000 84 2a 1c cd f6 0f 15 10 e0 10 e9 7f aa 07 e9 b4
       -124 42 28 -51 -10 15 21 16 -32 16 -23 127 -86 7 -23 -76
000010 97 29 40 01 49 35 1a 5c a6 f1 27 11 bc f0 fd 14
       -105 41 64 1 73 53 26 92 -90 -15 39 17 -68 -16 -3 20
000020 f1 2f d1 26 12 7f b8 40 fb 1c ec 2b e3 3a 55 b0
       -15 47 -47 38 18 127 -72 64 -5 28 -20 43 -29 58 85 -80
000030 cb 7f 14 30 b8 ca fb 9d 31 fe ef b2 d9 13 f9 d9
       -53 127 20 48 -72 -54 -5 -99 49 -2 -17 -78 -39 19 -7 -39
000040 37 08 4c dc 39 09 ce 1a 02 37 61 fb ac 21 a7 4f
       55 8 76 -36 57 9 -50 26 2 55 97 -5 -84 33 -89 79
000050 ea 13 14 f4 c9 19 23 1d f8 10 ec 35 81 c5 fb e7
       -22 19 20 -12 -55 25 35 29 -8 16 -20 53 -127 -59 -5 -25
000060 02 f2 81 e5 29 07 f4 13 fc 0a e8 e9 cc 1b e2 d3
       2 -14 -127 -27 41 7 -12 19 -4 10 -24 -23 -52 27 -30 -45
000070 09 f5 1e 44 0d 01 12 26 81 d4 f0 55 0f 24 c2 03
       9 -11 30 68 13 1 18 38 -127 -44 -16 85 15 36 -62 3
000080 2e e1 e9 d5 e9 60 e9 52 c8 10 07 34 e3 3d 18 e5
       46 -31 -23 -43 -23 96 -23 82 -56 16 7 52 -29 61 24 -27
000090 20 ea e7 b4 30 00 ca da da 16 00 7f ba 4b e1 bc
       32 -22 -25 -76 48 0 -54 -38 -38 22 0 127 -70 75 -31 -68
0000a0 4b 14 22 df 34 ef 1c 32 fd 4c e4 0b 03 c1 fa f8
       75 20 34 -33 52 -17 28 50 -3 76 -28 11 3 -63 -6 -8
0000b0 7f 0d be e3 c9 72 66 22 18 dc 3f fc 0c 30 ff 31
       127 13 -66 -29 -55 114 102 34 24 -36 63 -4 12 48 -1 49
0000c0 c2 00 f3 c3 fe 09 2b e1 ac 28 f7 cf ce 10 c3 6d
       -62 0 -13 -61 -2 9 43 -31 -84 40 -9 -49 -50 16 -61 109
0000d0 b9 02 32 0c 32 e6 49 7f ea f3 24 40 39 0c 50 1d
       -71 2 50 12 50 -26 73 127 -22 -13 36 64 57 12 80 29
0000e0 13 0d f0 0d 3d 07 01 f5 24 04 30 06 7f 50 fc e9
       19 13 -16 13 61 7 1 -11 36 4 48 6 127 80 -4 -23
0000f0 ba c2 10 29 00 ee 36 f1 05 de ee f5 1c 02 81 5a
       -70 -62 16 41 0 -18 54 -15 5 -34 -18 -11 28 2 -127 90

tfl.pseudo_qconst49 i1 [24, 1, 1, 144]
000000 f4 2c fe e9 fc fd e1 5e 07 01 f8 03 00 04 ff 06
       -12 44 -2 -23 -4 -3 -31 94 7 1 -8 3 0 4 -1 6
000010 0a 00 09 05 28 d5 03 f2 f9 f9 e5 9d fe f6 ec f3
       10 0 9 5 40 -43 3 -14 -7 -7 -27 -99 -2 -10 -20 -13
000020 0e fc fe 0b f0 13 0c 0d f4 14 0d f3 f2 0a e6 e0
       14 -4 -2 11 -16 19 12 13 -12 20 13 -13 -14 10 -26 -32
000030 f9 03 0f f0 fe ec ee 03 f3 ff 12 09 f6 12 0f f3
       -7 3 15 -16 -2 -20 -18 3 -13 -1 18 9 -10 18 15 -13
000040 05 81 3b f2 f8 14 ed f3 03 f1 f9 06 53 18 06 03
       5 -127 59 -14 -8 20 -19 -13 3 -15 -7 6 83 24 6 3
000050 06 fe f1 58 08 1b 21 07 f9 0c f2 f6 01 01 18 f9
       6 -2 -15 88 8 27 33 7 -7 12 -14 -10 1 1 24 -7
000060 fe 06 f0 1d fb 16 00 ef 1b 00 03 dd 27 03 ff f0
       -2 6 -16 29 -5 22 0 -17 27 0 3 -35 39 3 -1 -16
000070 0b 05 0d ea fb 04 17 fc f9 13 0b fd 01 09 12 f0
       11 5 13 -22 -5 4 23 -4 -7 19 11 -3 1 9 18 -16
000080 0a 9b 03 06 e6 20 eb 28 0a 19 ee 0f de 1c 2b 16
       10 -101 3 6 -26 32 -21 40 10 25 -18 15 -34 28 43 22
000090 08 7f 3c 97 01 b6 c2 12 0a df e8 fe e1 0f 31 21
       8 127 60 -105 1 -74 -62 18 10 -33 -24 -2 -31 15 49 33
0000a0 f0 d0 0d 39 ea de fd 11 bf e2 42 06 1d 17 2a af
       -16 -48 13 57 -22 -34 -3 17 -65 -30 66 6 29 23 42 -81
0000b0 d1 9d 03 e4 33 60 99 a6 fa c6 c3 c4 5a fd 08 c5
       -47 -99 3 -28 51 96 -103 -90 -6 -58 -61 -60 90 -3 8 -59
0000c0 69 dd 02 d8 54 e0 29 d3 60 b0 f3 e9 a9 f7 09 30
       105 -35 2 -40 84 -32 41 -45 96 -80 -13 -23 -87 -9 9 48
0000d0 0d de d8 2f 71 ef 23 57 a7 ea 88 e6 d3 9b d5 a3
       13 -34 -40 47 113 -17 35 87 -89 -22 -120 -26 -45 -101 -43 -93
0000e0 0f eb 11 2e bc 70 2c fe b5 39 28 dd 95 2e 00 eb
       15 -21 17 46 -68 112 44 -2 -75 57 40 -35 -107 46 0 -21
0000f0 81 ea 2b d1 d0 24 a1 fb df 00 09 07 dc f2 05 01
       -127 -22 43 -47 -48 36 -95 -5 -33 0 9 7 -36 -14 5 1

tfl.pseudo_qconst51 i1 [1, 3, 3, 144]
000000 b0 cc 13 05 e0 07 18 42 3b 1c f1 e4 f1 05 f6 0b
       -80 -52 19 5 -32 7 24 66 59 28 -15 -28 -15 5 -10 11
000010 f7 15 1a f8 e2 01 24 2e 07 fb ee 29 27 c6 1d 00
       -9 21 26 -8 -30 1 36 46 7 -5 -18 41 39 -58 29 0
000020 26 fc 34 03 8a 08 0e 13 08 06 35 17 ef eb 06 01
       38 -4 52 3 -118 8 14 19 8 6 53 23 -17 -21 6 1
000030 09 e4 2e 12 07 26 ed 1a ef df e5 18 76 01 f3 ae
       9 -28 46 18 7 38 -19 26 -17 -33 -27 24 118 1 -13 -82
000040 a5 2f 30 27 0f 01 f8 19 7f 22 20 09 13 0e fe fb
       -91 47 48 39 15 1 -8 25 127 34 32 9 19 14 -2 -5
000050 09 f8 04 1d f5 1e 62 15 13 13 f2 27 18 0e eb 4d
       9 -8 4 29 -11 30 98 21 19 19 -14 39 24 14 -21 77
000060 a3 00 05 f9 04 e7 1e 06 0c 02 ed 2a 02 06 7f ab
       -93 0 5 -7 4 -25 30 6 12 2 -19 42 2 6 127 -85
000070 d8 02 0c f7 02 1d fb cf 0e 2b 81 16 0d 48 12 21
       -40 2 12 -9 2 29 -5 -49 14 43 -127 22 13 72 18 33
000080 27 06 23 02 ea f8 81 e6 18 22 4b e2 e8 e8 0b 81
       39 6 35 2 -22 -8 -127 -26 24 34 75 -30 -24 -24 11 -127
000090 c2 02 07 35 c9 2a d7 d5 7f 1e 81 6d 15 36 5c bd
       -62 2 7 53 -55 42 -41 -43 127 30 -127 109 21 54 92 -67
0000a0 ff f4 f2 4a 03 ea 5c ea 4e f4 01 7f 2f bd 4a 1f
       -1 -12 -14 74 3 -22 92 -22 78 -12 1 127 47 -67 74 31
0000b0 e6 cf df db 81 1c fc 0f 7f d3 7f e3 1c 8c 1d f7
       -26 -49 -33 -37 -127 28 -4 15 127 -45 127 -29 28 -116 29 -9
0000c0 7f 66 e6 21 f6 8d f1 ee 81 60 ea 0a 7f c0 24 29
       127 102 -26 33 -10 -115 -15 -18 -127 96 -22 10 127 -64 36 41
0000d0 22 86 36 b0 7f d7 67 f4 67 7f 5a 09 05 7f eb 5b
       34 -122 54 -80 127 -41 103 -12 103 127 90 9 5 127 -21 91
0000e0 06 fb 0a 7f 02 dc 7f 42 7f 65 bb fd 39 7f d8 7f
       6 -5 10 127 2 -36 127 66 127 101 -69 -3 57 127 -40 127
0000f0 0a de 03 a7 12 7c dd f7 1e e2 e0 7f 7f 7f f6 c3
       10 -34 3 -89 18 124 -35 -9 30 -30 -32 127 127 127 -10 -61

tfl.pseudo_qconst53 i1 [144, 1, 1, 24]
000000 d4 3b 84 ef fd c0 b1 fe 81 37 17 0f f7 af c0 de
       -44 59 -124 -17 -3 -64 -79 -2 -127 55 23 15 -9 -81 -64 -34
000010 d4 23 fa 19 55 27 a4 5e 05 fe 7b 29 c5 ac 10 d2
       -44 35 -6 25 85 39 -92 94 5 -2 123 41 -59 -84 16 -46
000020 b6 0c fe 1f 45 7f 0c 06 a1 54 c0 bb 42 de dd 00
       -74 12 -2 31 69 127 12 6 -95 84 -64 -69 66 -34 -35 0
000030 03 f7 30 16 0a 08 e2 15 06 22 de 81 d9 10 19 6f
       3 -9 48 22 10 8 -30 21 6 34 -34 -127 -39 16 25 111
000040 db f3 17 35 20 dc 41 0c ec ea 05 0c fb f6 2a 81
       -37 -13 23 53 32 -36 65 12 -20 -22 5 12 -5 -10 42 -127
000050 e5 f6 fd 0b 0a 1e e8 e9 eb 34 e8 d2 f4 f4 e0 f6
       -27 -10 -3 11 10 30 -24 -23 -21 52 -24 -46 -12 -12 -32 -10
000060 cd 3f d5 c3 10 20 e0 f5 78 fb cf 81 fe 3f 36 36
       -51 63 -43 -61 16 32 -32 -11 120 -5 -49 -127 -2 63 54 54
000070 0e e4 f8 d5 52 14 fe 01 fd 0f 0e fd 00 0e 00 7f
       14 -28 -8 -43 82 20 -2 1 -3 15 14 -3 0 14 0 127
000080 f6 fb 05 05 ee fc 16 14 fe 16 01 19 0d ff 06 02
       -10 -5 5 5 -18 -4 22 20 -2 22 1 25 13 -1 6 2
000090 b7 b3 36 1e c2 1f dc bf f9 bb 7f f1 d0 19 f9 66
       -73 -77 54 30 -62 31 -36 -65 -7 -69 127 -15 -48 25 -7 102
0000a0 7d 02 cb e3 10 16 01 c2 81 ec 20 af 69 fb ee 0b
       125 2 -53 -29 16 22 1 -62 -127 -20 32 -81 105 -5 -18 11
0000b0 06 04 3e ef fc 2a 0c f1 ef a6 0a 11 0c d2 ca d3
       6 4 62 -17 -4 42 12 -15 -17 -90 10 17 12 -46 -54 -45
0000c0 1d ff a5 91 05 c2 a8 3b 81 83 d5 37 f0 b2 1b fb
       29 -1 -91 -111 5 -62 -88 59 -127 -125 -43 55 -16 -78 27 -5
0000d0 b6 2a 8c 12 72 44 15 00 bc 39 0d 12 05 e5 a4 d8
       -74 42 -116 18 114 68 21 0 -68 57 13 18 5 -27 -92 -40
0000e0 9b 7f eb 2e c4 f1 e4 19 c9 1c 42 c5 41 1b 1c 2d
       -101 127 -21 46 -60 -15 -28 25 -55 28 66 -59 65 27 28 45
0000f0 00 e5 e1 f5 c0 33 14 e4 89 ea d3 8a ed 0f b0 28
       0 -27 -31 -11 -64 51 20 -28 -119 -22 -45 -118 -19 15 -80 40
