results/model_summary/customcnn_model.tflite (tflite, 186016 bytes, 6 tensors)

tfl.pseudo_qconst1 i1 [1, 64] scale=0.00217419 zero_point=0
000000 23 d5 28 7f c1 9e 1f 04 d7 66 40 4f 4d bd c0 b8
       0.076096654 -0.09349017 0.0869676 0.27612212 -0.13697398 -0.21307062 0.06739989 0.00869676 -0.08914179 0.22176738 0.13914816 0.171761 0.16741262 -0.14567073 -0.13914816 -0.15654168
000010 7a 09 db 26 ad 14 71 0c 4a 58 f0 b1 31 52 4c b1
       0.2652512 0.01956771 -0.08044503 0.08261922 -0.18045777 0.0434838 0.24568348 0.02609028 0.16089006 0.19132872 -0.03478704 -0.171761 0.10653531 0.17828359 0.16523844 -0.171761
000020 26 8f 0a 79 e6 ef b8 9b 4a 98 9a f9 e3 1e 7a 5b
       0.08261922 -0.24568348 0.0217419 0.263077 -0.05652894 -0.03696123 -0.15654168 -0.2195932 0.16089006 -0.22611576 -0.22176738 -0.01521933 -0.06305151 0.0652257 0.2652512 0.19785129
000030 97 25 cc 93 75 08 60 58 37 bd 1c 0f df 68 f2 c7
       -0.22828995 0.08044503 -0.11305788 -0.23698671 0.25438023 0.01739352 0.20872223 0.19132872 0.11958045 -0.14567073 0.06087732 0.03261285 -0.07174827 0.22611576 -0.03043866 -0.12392883

tfl.pseudo_qconst3 i1 [64, 128]
000000 3b eb b0 0d 09 06 5b c6 68 de 2c 22 45 29 da b7
       59 -21 -80 13 9 6 91 -58 104 -34 44 34 69 41 -38 -73
000010 cc 3c c0 f8 9f 1b 4f 9c ed d1 24 a8 30 f6 1e c3
       -52 60 -64 -8 -97 27 79 -100 -19 -47 36 -88 48 -10 30 -61
000020 b4 ce cb d4 cc 6b 3f ef 41 de 96 b9 70 f4 04 28
       -76 -50 -53 -44 -52 107 63 -17 65 -34 -106 -71 112 -12 4 40
000030 2e 0e 1c a7 24 ce d1 b9 13 08 ab be c3 17 49 2a
       46 14 28 -89 36 -50 -47 -71 19 8 -85 -66 -61 23 73 42
000040 28 ea e4 07 43 1e b2 a7 24 39 14 12 9a 2f 1a f1
       40 -22 -28 7 67 30 -78 -89 36 57 20 18 -102 47 26 -15
000050 13 e4 3e 3c 54 c7 35 ea 10 ff c0 f3 43 b5 d5 5f
       19 -28 62 60 84 -57 53 -22 16 -1 -64 -13 67 -75 -43 95
000060 1d b5 a7 0b dd d1 b0 d7 35 e0 42 f9 f0 52 ce 36
       29 -75 -89 11 -35 -47 -80 -41 53 -32 66 -7 -16 82 -50 54
000070 7f 6a 23 da df 4f 49 41 4b 48 3e 47 35 3f 29 6f
       127 106 35 -38 -33 79 73 65 75 72 62 71 53 63 41 111
000080 4f 34 f8 40 03 d4 1e 90 2f 61 b4 34 b9 af 42 f0
       79 52 -8 64 3 -44 30 -112 47 97 -76 52 -71 -81 66 -16
000090 54 18 dd cd 76 7f 19 fb 3d 15 d4 da 00 d7 c2 9b
       84 24 -35 -51 118 127 25 -5 61 21 -44 -38 0 -41 -62 -101
0000a0 63 15 93 ee 29 1d bf 0e 2e 43 69 cb a1 16 8f 2d
       99 21 -109 -18 41 29 -65 14 46 67 105 -53 -95 22 -113 45
0000b0 f5 02 d9 09 5d e7 4a 54 18 50 3b 0e a1 c3 70 25
       -11 2 -39 9 93 -25 74 84 24 80 59 14 -95 -61 112 37
0000c0 b0 df 89 ef e6 ff c8 b5 e0 df 5b 57 d5 e5 ee bd
       -80 -33 -119 -17 -26 -1 -56 -75 -32 -33 91 87 -43 -27 -18 -67
0000d0 60 49 e9 fe d4 52 5b d7 01 4d 11 b6 f0 de d9 ea
       96 73 -23 -2 -44 82 91 -41 1 77 17 -74 -16 -34 -39 -22
0000e0 e5 29 fa e2 ca bc 43 62 3d 4a 69 34 37 4e 0b 3a
       -27 41 -6 -30 -54 -68 67 98 61 74 105 52 55 78 11 58
0000f0 3b cb dd 48 9e 29 24 3e ce c2 bc 34 ef 28 f3 24
       59 -53 -35 72 -98 41 36 62 -50 -62 -68 52 -17 40 -13 36

tfl.pseudo_qconst5 i1 [128, 3, 3, 96]
000000 a8 f6 19 06 69 45 10 2b c2 fa c3 bb db f0 ef d4
       -88 -10 25 6 105 69 16 43 -62 -6 -61 -69 -37 -16 -17 -44
000010 cc 08 2e 27 29 64 11 dc 19 04 46 e9 c7 3b fc 29
       -52 8 46 39 41 100 17 -36 25 4 70 -23 -57 59 -4 41
000020 12 04 49 e7 24 1b 4e 2f b0 de 06 fa 05 28 c8 fc
       18 4 73 -25 36 27 78 47 -80 -34 6 -6 5 40 -56 -4
000030 41 f5 f9 eb bd fe fb 9c e9 47 ad eb 10 15 1a e6
       65 -11 -7 -21 -67 -2 -5 -100 -23 71 -83 -21 16 21 26 -26
000040 e4 06 f0 4b dd 07 df b0 eb 1e c0 bb 1a 1b 78 f5
       -28 6 -16 75 -35 7 -33 -80 -21 30 -64 -69 26 27 120 -11
000050 24 39 5f e4 56 ba e7 fb 2a f0 3c dd 2a 2e 11 ba
       36 57 95 -28 86 -70 -25 -5 42 -16 60 -35 42 46 17 -70
000060 03 a9 2f e3 f1 08 bd f6 fb b1 d3 eb 2d 37 e6 03
       3 -87 47 -29 -15 8 -67 -10 -5 -79 -45 -21 45 55 -26 3
000070 fc 07 a7 47 be 0d b8 c3 22 2f d5 ea 02 20 e8 da
       -4 7 -89 71 -66 13 -72 -61 34 47 -43 -22 2 32 -24 -38
000080 ba c7 69 1c c2 d9 50 d8 dc 1d fb ad fc d4 83 09
       -70 -57 105 28 -62 -39 80 -40 -36 29 -5 -83 -4 -44 -125 9
000090 ef c7 e1 97 97 67 17 0d 4a f9 e7 55 37 00 b6 42
       -17 -57 -31 -105 -105 103 23 13 74 -7 -25 85 55 0 -74 66
0000a0 17 0c 43 0b c7 3f e7 fa aa 1d e5 f6 d1 dc 36 3b
       23 12 67 11 -57 63 -25 -6 -86 29 -27 -10 -47 -36 54 59
0000b0 ea ff 7d c2 08 47 08 9f b6 95 e2 99 f0 1e 45 b6
       -22 -1 125 -62 8 71 8 -97 -74 -107 -30 -103 -16 30 69 -74
0000c0 e3 18 33 0b 36 0b 14 b0 93 2b a3 bf b5 44 23 b8
       -29 24 51 11 54 11 20 -80 -109 43 -93 -65 -75 68 35 -72
0000d0 db f1 c0 4e 30 26 b9 19 0d e7 41 31 cd ec c1 2a
       -37 -15 -64 78 48 38 -71 25 13 -25 65 49 -51 -20 -63 42
0000e0 03 54 5a ab 3b fb e1 04 ed 0c 0a 03 33 cc 94 d2
       3 84 90 -85 59 -5 -31 4 -19 12 10 3 51 -52 -108 -46
0000f0 54 95 09 cf e8 5c 17 c1 2a 24 de 0f 07 26 b3 0c
       84 -107 9 -49 -24 92 23 -63 42 36 -34 15 7 38 -77 12

tfl.pseudo_qconst7 i1 [96, 3, 3, 48]
000000 df 52 21 d0 ca 0e 06 10 17 d1 cf c5 20 44 e9 cf
       -33 82 33 -48 -54 14 6 16 23 -47 -49 -59 32 68 -23 -49
000010 fc 33 fa 4a 66 20 2f 61 75 bb c0 ec 20 91 3f 03
       -4 51 -6 74 102 32 47 97 117 -69 -64 -20 32 -111 63 3
000020 20 17 a9 d3 d6 18 e8 fc a0 4d 1f fa 10 10 ff 42
       32 23 -87 -45 -42 24 -24 -4 -96 77 31 -6 16 16 -1 66
000030 25 69 20 f5 e0 c6 5e 55 d8 df 13 91 f7 37 13 28
       37 105 32 -11 -32 -58 94 85 -40 -33 19 -111 -9 55 19 40
000040 09 1e ed ae 0f c5 04 1b 12 0e 1b e1 db f3 c5 ec
       9 30 -19 -82 15 -59 4 27 18 14 27 -31 -37 -13 -59 -20
000050 02 0b e9 d7 03 9c d4 c4 d7 c0 fa 68 19 03 e1 29
       2 11 -23 -41 3 -100 -44 -60 -41 -64 -6 104 25 3 -31 41
000060 f3 4f b1 0d d9 e2 3f 3d 0e 9f f7 0f e5 c3 24 08
       -13 79 -79 13 -39 -30 63 61 14 -97 -9 15 -27 -61 36 8
000070 29 0e 29 40 24 17 de 52 1c ea b1 e4 e8 e5 26 30
       41 14 41 64 36 23 -34 82 28 -22 -79 -28 -24 -27 38 48
000080 ec 7f cc f9 d1 9e 04 fe ab 42 f2 5b 0d 01 3c e5
       -20 127 -52 -7 -47 -98 4 -2 -85 66 -14 91 13 1 60 -27
000090 10 0f ba cd 00 e3 e9 1b 18 21 30 2a 25 28 4d 0b
       16 15 -70 -51 0 -29 -23 27 24 33 48 42 37 40 77 11
0000a0 38 05 0f 1f 7e 3f 56 55 f3 c3 2f e7 0b ed e9 3c
       56 5 15 31 126 63 86 85 -13 -61 47 -25 11 -19 -23 60
0000b0 c7 f8 c2 d3 d2 ca c6 27 c1 45 51 11 fe 20 05 e6
       -57 -8 -62 -45 -46 -54 -58 39 -63 69 81 17 -2 32 5 -26
0000c0 16 fc 16 0f 09 eb f0 15 db 2d bd c4 25 f6 e8 2a
       22 -4 22 15 9 -21 -16 21 -37 45 -67 -60 37 -10 -24 42
0000d0 27 2e 30 32 0c d4 e2 d0 d7 ed 34 ed c9 05 02 eb
       39 46 48 50 12 -44 -30 -48 -41 -19 52 -19 -55 5 2 -21
0000e0 cd 4c db cf c9 f0 10 d9 d0 50 24 47 bf 1c 40 e0
       -51 76 -37 -49 -55 -16 16 -39 -48 80 36 71 -65 28 64 -32
0000f0 1b 66 d2 dc 35 fc 55 35 ad cc e4 ef 35 13 15 22
       27 102 -46 -36 53 -4 85 53 -83 -52 -28 -17 53 19 21 34

tfl.pseudo_qconst9 i1 [48, 3, 3, 24]
000000 00 b5 da b8 f5 0f 56 4c 2b ad d6 e5 18 d8 15 22
       0 -75 -38 -72 -11 15 86 76 43 -83 -42 -27 24 -40 21 34
000010 b9 e9 ca ae b9 0f d0 ec cc f1 07 b3 35 cf bf 6e
       -71 -23 -54 -82 -71 15 -48 -20 -52 -15 7 -77 53 -49 -65 110
000020 fd 35 a0 b5 21 25 df 11 ea a8 27 b1 c5 da 02 e6
       -3 53 -96 -75 33 37 -33 17 -22 -88 39 -79 -59 -38 2 -26
000030 d8 44 3a 05 0a ee fa fd 03 e5 ae 30 4e 90 4a 93
       -40 68 58 5 10 -18 -6 -3 3 -27 -82 48 78 -112 74 -109
000040 03 95 f4 33 81 0c 33 32 cf 58 19 25 3c 1d b4 fd
       3 -107 -12 51 -127 12 51 50 -49 88 25 37 60 29 -76 -3
000050 36 cf 38 8e b7 40 14 24 11 53 01 d1 0f 26 e5 d0
       54 -49 56 -114 -73 64 20 36 17 83 1 -47 15 38 -27 -48
000060 38 19 ba d4 c1 f1 f8 43 e8 57 73 d2 00 54 02 ee
       56 25 -70 -44 -63 -15 -8 67 -24 87 115 -46 0 84 2 -18
000070 be e1 6b a8 55 42 1b e8 fc 24 d7 b9 af f9 1d ca
       -66 -31 107 -88 85 66 27 -24 -4 36 -41 -71 -81 -7 29 -54
000080 21 e5 39 11 cc 73 d1 e4 ff ba 78 2b c0 04 62 d0
       33 -27 57 17 -52 115 -47 -28 -1 -70 120 43 -64 4 98 -48
000090 3e 08 c4 d5 11 2e bc be 55 c9 d7 f4 13 d9 d8 fc
       62 8 -60 -43 17 46 -68 -66 85 -55 -41 -12 19 -39 -40 -4
0000a0 37 fb ec 72 e7 a6 f1 d9 2c b3 ee d1 1d 2e 3f 0b
       55 -5 -20 114 -25 -90 -15 -39 44 -77 -18 -47 29 46 63 11
0000b0 40 c5 16 31 44 0e 0c b6 e4 b9 c2 dd ec d6 4f 03
       64 -59 22 49 68 14 12 -74 -28 -71 -62 -35 -20 -42 79 3
0000c0 50 9f ed ed f8 eb f6 26 49 0c 6b bb d5 c7 b1 29
       80 -97 -19 -19 -8 -21 -10 38 73 12 107 -69 -43 -57 -79 41
0000d0 15 f5 fb 3c e7 68 4b 06 1c e4 49 16 a7 13 c6 1a
       21 -11 -5 60 -25 104 75 6 28 -28 73 22 -89 19 -58 26
0000e0 f4 c5 1b de 37 81 ca f2 e5 19 c2 f7 d5 b1 2c fb
       -12 -59 27 -34 55 -127 -54 -14 -27 25 -62 -9 -43 -79 44 -5
0000f0 b9 c0 a2 21 f2 2b fb 2d 46 1a da d8 2e f5 08 1d
       -71 -64 -94 33 -14 43 -5 45 70 26 -38 -40 46 -11 8 29

tfl.pseudo_qconst11 i1 [24, 3, 3, 3]
000000 e9 22 62 2a 1c 70 f8 38 a4 bb 6b f6 bb 9a 18 81
       -23 34 98 42 28 112 -8 56 -92 -69 107 -10 -69 -102 24 -127
000010 7e e3 ad e2 57 28 86 71 9b ea 50 ad 0e af cf 9a
       126 -29 -83 -30 87 40 -122 113 -101 -22 80 -83 14 -81 -49 -102
000020 66 cc 02 b2 7d c3 f0 c3 27 ea d9 d5 ca 7f 22 b1
       102 -52 2 -78 125 -61 -16 -61 39 -22 -39 -43 -54 127 34 -79
000030 04 40 4d 23 68 44 10 fc 4b 09 e0 de a0 db 5e 1f
       4 64 77 35 104 68 16 -4 75 9 -32 -34 -96 -37 94 31
000040 4c 15 d3 29 d1 18 ce 17 23 29 df e2 cb 19 f5 81
       76 21 -45 41 -47 24 -50 23 35 41 -33 -30 -53 25 -11 -127
000050 de 77 af 5c 1a 6e ac f2 a3 eb db 9d f2 1f a5 ef
       -34 119 -81 92 26 110 -84 -14 -93 -21 -37 -99 -14 31 -91 -17
000060 5c ce 68 be 4e 28 81 b8 c2 ec 61 49 1b c8 08 a4
       92 -50 104 -66 78 40 -127 -72 -62 -20 97 73 27 -56 8 -92
000070 cc 43 c9 f0 5a 05 c2 11 cd ef c2 f3 3d 60 7f 49
       -52 67 -55 -16 90 5 -62 17 -51 -17 -62 -13 61 96 127 73
000080 49 26 aa 71 e9 0d b7 32 1b be 6e 28 e2 7f dd 9e
       73 38 -86 113 -23 13 -73 50 27 -66 110 40 -30 127 -35 -98
000090 9b c6 f3 8f 07 bd 60 0b a9 20 91 fc 6d fd 51 c1
       -101 -58 -13 -113 7 -67 96 11 -87 32 -111 -4 109 -3 81 -63
0000a0 7a 7c 36 09 f7 bb 0e 53 9b 59 d3 4c be f4 eb e5
       122 124 54 9 -9 -69 14 83 -101 89 -45 76 -66 -12 -21 -27
0000b0 df fd cc 75 4b 2e 0e e2 8f 31 eb da 7f cb d6 51
       -33 -3 -52 117 75 46 14 -30 -113 49 -21 -38 127 -53 -42 81
0000c0 62 39 71 c4 60 12 d6 a1 e1 1e 64 02 37 e1 9b f4
       98 57 113 -60 96 18 -42 -95 -31 30 100 2 55 -31 -101 -12
0000d0 93 2e fd 11 3a 81 17 f1 cd 21 20 f6 da 08 c7 be
       -109 46 -3 17 58 -127 23 -15 -51 33 32 -10 -38 8 -57 -66
0000e0 5b 26 da 27 53 56 f0 be 81 0f 13 08 18 a6 c7 fb
       91 38 -38 39 83 86 -16 -66 -127 15 19 8 24 -90 -57 -5
0000f0 da ba 4f ad 3c 86 f0 7f c6 ff e9 0d 0a d4 b1 b4
       -38 -70 79 -83 60 -122 -16 127 -58 -1 -23 13 10 -44 -79 -76
