results/model_summary/mobilenetv2_model.tflite (tflite, 662968 bytes, 54 tensors)

tfl.pseudo_qconst1 i1 [1, 32] scale=0.0034443894 zero_point=0
-0.3582165 -0.103331685 0.33755016 -0.37543845 -0.33755016 -0.39610478 0.23421848 -0.43743744
-0.35477212 -0.38232723 -0.40643796 -0.09299851 -0.37199405 -0.1653307 0.013777558 0.26866236
-0.31343943 -0.16877508 -0.22388531 0.35132772 -0.36854967 -0.14810875 -0.31343943 -0.2273297
-0.34443894 0.17221947 0.3616609 0.34788334 0.13433118 0.42021552 0.2583292 0.26866236
00000000: 98e2 6293 9e8d 4481 9991 8ae5 94d0 044e
00000010: a5cf bf66 95d5 a5be 9c32 6965 277a 4b4e

tfl.pseudo_qconst3 i1 [32, 1280]
25 45 72 26 -37 58 10 -49
-30 -60 -26 -7 -8 -66 37 14
-65 -39 -2 -69 -42 -23 -40 -14
-3 62 -24 74 -2 15 -21 18
30 76 -37 -35 -8 -22 -16 64
-75 67 -96 55 36 -3 32 30
8 32 52 33 -2 -32 -68 48
-42 100 63 51 -12 -47 44 48
41 105 -55 -27 -66 30 -50 68
-11 9 -29 9 61 -67 -46 -50
40 43 87 -40 -43 77 90 51
-47 25 9 -28 -48 -83 51 -86
48 -28 -42 15 -8 93 12 23
-73 13 -40 -44 29 57 89 -19
-32 7 -10 44 44 76 84 -24
29 -33 44 41 -1 -53 -2 -65
3 -7 16 63 94 -71 -21 25
32 0 -21 -53 50 2 15 -52
-58 2 -9 85 16 -13 -45 19
-17 26 63 3 -58 -20 -40 67
-6 -96 -43 -62 69 -1 50 21
37 21 -13 53 76 -2 60 -50
-49 33 -18 15 35 -68 -3 -97
36 -32 -44 65 12 9 52 -28
-62 60 23 -22 -49 -33 39 -8
-62 -75 -26 36 -34 0 15 60
29 76 44 0 -49 56 -15 11
59 -34 -78 25 8 -20 18 -16
-37 22 -75 24 69 -23 -19 -1
45 -33 24 69 -20 65 -31 -38
-41 28 71 96 85 53 -38 -37
-44 50 -4 6 -10 84 -80 8
00000000: 192d 481a db3a 0acf e2c4 e6f9 f8be 250e
00000010: bfd9 febb d6e9 d8f2 fd3e e84a fe0f eb12
00000020: 1e4c dbdd f8ea f040 b543 a037 24fd 201e
00000030: 0820 3421 fee0 bc30 d664 3f33 f4d1 2c30
00000040: 2969 c9e5 be1e ce44 f509 e309 3dbd d2ce
00000050: 282b 57d8 d54d 5a33 d119 09e4 d0ad 33aa
00000060: 30e4 d60f f85d 0c17 b70d d8d4 1d39 59ed
00000070: e007 f62c 2c4c 54e8 1ddf 2c29 ffcb febf
00000080: 03f9 103f 5eb9 eb19 2000 ebcb 3202 0fcc
00000090: c602 f755 10f3 d313 ef1a 3f03 c6ec d843
000000a0: faa0 d5c2 45ff 3215 2515 f335 4cfe 3cce
000000b0: cf21 ee0f 23bc fd9f 24e0 d441 0c09 34e4
000000c0: c23c 17ea cfdf 27f8 c2b5 e624 de00 0f3c
000000d0: 1d4c 2c00 cf38 f10b 3bde b219 08ec 12f0
000000e0: db16 b518 45e9 edff 2ddf 1845 ec41 e1da
000000f0: d71c 4760 5535 dadb d432 fc06 f654 b008

tfl.pseudo_qconst5 i1 [1280, 1, 1, 112]
20 72 -15 30 30 4 -6 42
69 -28 25 37 74 35 -75 64
-15 61 -49 -7 51 22 26 -42
-15 -21 18 26 -47 -70 -47 16
-71 -17 -14 -68 -127 8 38 -24
-24 47 -73 16 -23 71 -27 -45
11 63 -11 118 53 31 -12 1
25 -18 22 -15 26 -3 -18 -4
-56 24 -23 2 -90 11 -50 17
21 -20 39 -76 21 -12 -79 34
11 -53 70 -24 -52 -122 31 -18
11 -71 -23 -55 50 -17 41 25
-40 5 23 -6 -53 -20 -41 -1
45 8 21 -70 19 -81 24 -67
-48 124 3 8 98 70 40 5
-9 16 30 54 14 -29 21 -22
-4 99 -11 12 4 -61 87 -11
18 70 63 -54 -45 15 20 2
14 -13 -18 -43 38 2 -18 -90
-48 12 90 -22 -29 1 -12 -13
7 -40 31 -80 44 -23 24 41
31 13 -31 24 10 7 24 -74
-17 24 -58 42 -78 -15 -45 54
-60 12 -46 -14 1 -14 21 29
-91 3 81 -5 41 17 7 23
-127 -90 10 1 62 7 -32 -46
57 13 12 -49 101 36 -57 3
-39 -50 -120 49 22 14 78 -52
-12 -9 3 -14 127 3 -8 -84
-2 34 -9 15 -23 -10 -75 -81
12 -21 28 15 -32 75 9 -10
20 -50 -27 -76 -59 -45 19 -42
00000000: 1448 f11e 1e04 fa2a 45e4 1925 4a23 b540
00000010: f13d cff9 3316 1ad6 f1eb 121a d1ba d110
00000020: b9ef f2bc 8108 26e8 e82f b710 e947 e5d3
00000030: 0b3f f576 351f f401 19ee 16f1 1afd eefc
00000040: c818 e902 a60b ce11 15ec 27b4 15f4 b122
00000050: 0bcb 46e8 cc86 1fee 0bb9 e9c9 32ef 2919
00000060: d805 17fa cbec d7ff 2d08 15ba 13af 18bd
00000070: d07c 0308 6246 2805 f710 1e36 0ee3 15ea
00000080: fc63 f50c 04c3 57f5 1246 3fca d30f 1402
00000090: 0ef3 eed5 2602 eea6 d00c 5aea e301 f4f3
000000a0: 07d8 1fb0 2ce9 1829 1f0d e118 0a07 18b6
000000b0: ef18 c62a b2f1 d336 c40c d2f2 01f2 151d
000000c0: a503 51fb 2911 0717 81a6 0a01 3e07 e0d2
000000d0: 390d 0ccf 6524 c703 d9ce 8831 160e 4ecc
000000e0: f4f7 03f2 7f03 f8ac fe22 f70f e9f6 b5af
000000f0: 0ceb 1c0f e04b 09f6 14ce e5b4 c5d3 13d6

tfl.pseudo_qconst7 i1 [112, 1, 1, 336]
-50 32 0 2 -80 31 -26 15
-29 1 21 -6 59 55 -76 -5
4 -28 -38 -1 37 -10 20 -40
-12 2 -2 51 -33 2 12 -34
27 -20 12 -48 -5 -49 -2 -32
64 -43 54 56 -28 20 -66 42
-33 69 -25 -12 -48 -15 62 50
25 -45 12 67 23 -17 -14 22
-7 15 37 -18 24 16 -1 30
57 6 -18 11 -1 -54 -46 12
-52 -15 -12 -54 -8 -23 3 -22
-112 41 5 12 6 -2 26 14
-1 -29 -49 -100 39 -24 39 22
62 34 32 -36 -11 27 -16 -62
4 -66 35 -72 24 -79 -43 38
-69 -1 -30 42 -16 -11 29 2
-32 13 -1 5 84 -51 -23 27
21 -31 -15 14 59 -24 -17 -57
-44 69 10 9 41 20 31 -80
21 -6 18 -64 -44 -23 34 37
82 9 -1 2 -20 85 -33 -50
40 9 -20 13 -8 6 10 70
1 -53 39 3 22 -3 38 27
3 34 -9 -30 -7 39 56 -30
41 32 -1 6 -1 -54 42 7
-25 23 17 37 -1 -98 -35 3
1 -13 -15 52 -53 29 1 -34
-39 2 10 -7 -9 -23 32 10
18 -30 -9 25 -11 2 -9 -15
-20 -62 -36 14 51 18 30 -51
33 46 18 -29 69 3 -48 5
16 1 -23 -52 30 4 -10 15
00000000: ce20 0002 b01f e60f e301 15fa 3b37 b4fb
00000010: 04e4 daff 25f6 14d8 f402 fe33 df02 0cde
00000020: 1bec 0cd0 fbcf fee0 40d5 3638 e414 be2a
00000030: df45 e7f4 d0f1 3e32 19d3 0c43 17ef f216
00000040: f90f 25ee 1810 ff1e 3906 ee0b ffca d20c
00000050: ccf1 f4ca f8e9 03ea 9029 050c 06fe 1a0e
00000060: ffe3 cf9c 27e8 2716 3e22 20dc f51b f0c2
00000070: 04be 23b8 18b1 d526 bbff e22a f0f5 1d02
00000080: e00d ff05 54cd e91b 15e1 f10e 3be8 efc7
00000090: d445 0a09 2914 1fb0 15fa 12c0 d4e9 2225
000000a0: 5209 ff02 ec55 dfce 2809 ec0d f806 0a46
000000b0: 01cb 2703 16fd 261b 0322 f7e2 f927 38e2
000000c0: 2920 ff06 ffca 2a07 e717 1125 ff9e dd03
000000d0: 01f3 f134 cb1d 01de d902 0af9 f7e9 200a
000000e0: 12e2 f719 f502 f7f1 ecc2 dc0e 3312 1ecd
000000f0: 212e 12e3 4503 d005 1001 e9cc 1e04 f60f

tfl.pseudo_qconst9 i1 [1, 3, 3, 336]
87 105 94 91 90 83 91 99
99 66 71 67 96 77 76 103
91 53 87 97 -59 105 -92 88
-89 90 -48 -97 -99 -124 -60 60
24 99 -66 86 101 -127 106 83
62 -51 58 72 127 81 88 83
-71 87 -112 36 -127 86 -88 79
-15 -67 -77 121 85 -58 91 94
105 -2 -107 52 86 69 88 86
78 -5 94 -95 97 62 -78 -93
-88 87 77 54 -98 -54 45 -127
67 70 -88 87 101 -89 -76 93
95 -127 102 42 103 -52 111 3
107 83 86 66 92 -76 -57 -95
39 88 -74 -98 67 85 -50 -29
64 65 49 96 -62 -93 66 26
-22 127 113 -50 35 -78 91 -54
34 26 100 13 -108 -91 82 -51
-83 82 83 -106 64 127 100 71
98 -69 -100 87 -88 -96 60 90
-110 80 51 94 90 -89 89 85
-112 92 -113 -127 65 -75 -44 -74
-25 32 75 80 63 -102 125 -15
87 -101 83 101 -81 91 -108 -4
-57 -65 74 -82 77 122 -94 72
75 109 100 61 -84 -88 88 91
-4 -97 -90 82 85 -127 93 -100
-42 79 -44 -109 95 93 -66 -60
92 72 126 71 61 -63 40 71
-89 86 15 -86 76 -97 77 -13
70 117 -98 -46 23 -56 77 55
92 -45 62 -102 74 47 65 -92
00000000: 5769 5e5b 5a53 5b63 6342 4743 604d 4c67
00000010: 5b35 5761 c569 a458 a75a d09f 9d84 c43c
00000020: 1863 be56 6581 6a53 3ecd 3a48 7f51 5853
00000030: b957 9024 8156 a84f f1bd b379 55c6 5b5e
00000040: 69fe 9534 5645 5856 4efb 5ea1 613e b2a3
00000050: a857 4d36 9eca 2d81 4346 a857 65a7 b45d
00000060: 5f81 662a 67cc 6f03 6b53 5642 5cb4 c7a1
00000070: 2758 b69e 4355 cee3 4041 3160 c2a3 421a
00000080: ea7f 71ce 23b2 5bca 221a 640d 94a5 52cd
00000090: ad52 5396 407f 6447 62bb 9c57 a8a0 3c5a
000000a0: 9250 335e 5aa7 5955 905c 8f81 41b5 d4b6
000000b0: e720 4b50 3f9a 7df1 579b 5365 af5b 94fc
000000c0: c7bf 4aae 4d7a a248 4b6d 643d aca8 585b
000000d0: fc9f a652 5581 5d9c d64f d493 5f5d bec4
000000e0: 5c48 7e47 3dc1 2847 a756 0faa 4c9f 4df3
000000f0: 4675 9ed2 17c8 4d37 5cd3 3e9a 4a2f 41a4

tfl.pseudo_qconst11 i1 [336, 1, 1, 56]
-93 65 -75 -40 22 -30 79 -11
-71 29 4 120 -26 3 40 31
-49 40 -26 17 -48 127 -22 42
10 -18 74 -14 -13 -79 -22 -2
38 10 28 36 -58 -36 -31 -28
111 48 32 -30 46 -1 13 85
-8 -62 -13 89 81 42 32 25
-5 -25 7 -58 8 -20 26 53
-91 33 -30 24 24 4 11 -33
-53 -40 12 30 -90 -2 8 41
11 43 -17 -44 77 94 94 -8
-23 27 18 30 27 -100 -4 66
11 13 46 9 -117 -17 -42 46
127 58 -16 -9 12 -22 48 52
-52 -40 4 -58 -72 -78 -49 -8
-3 43 79 -72 32 50 90 96
9 -33 -36 -60 -30 77 8 16
0 2 80 6 23 -34 -10 -68
-86 6 -10 -13 59 -67 -50 -2
5 71 6 -23 -6 -66 -51 30
-127 46 -69 71 -69 31 47 71
-17 57 -16 -42 17 -7 -7 6
104 42 -26 61 -39 -17 -5 -69
0 30 57 23 -45 -42 -19 67
6 -42 -32 9 -34 -41 -5 -14
25 45 57 -61 -55 93 -116 -77
22 -74 -106 -34 66 103 -30 113
106 76 -5 9 -100 -60 -127 -88
-28 -13 127 -21 23 1 -25 33
-36 56 -9 -71 23 62 19 -29
-27 -63 52 44 58 20 -17 -1
-23 -30 62 -47 26 60 47 33
00000000: a341 b5d8 16e2 4ff5 b91d 0478 e603 281f
00000010: cf28 e611 d07f ea2a 0aee 4af2 f3b1 eafe
00000020: 260a 1c24 c6dc e1e4 6f30 20e2 2eff 0d55
00000030: f8c2 f359 512a 2019 fbe7 07c6 08ec 1a35
00000040: a521 e218 1804 0bdf cbd8 0c1e a6fe 0829
00000050: 0b2b efd4 4d5e 5ef8 e91b 121e 1b9c fc42
00000060: 0b0d 2e09 8bef d62e 7f3a f0f7 0cea 3034
00000070: ccd8 04c6 b8b2 cff8 fd2b 4fb8 2032 5a60
00000080: 09df dcc4 e24d 0810 0002 5006 17de f6bc
00000090: aa06 f6f3 3bbd cefe 0547 06e9 fabe cd1e
000000a0: 812e bb47 bb1f 2f47 ef39 f0d6 11f9 f906
000000b0: 682a e63d d9ef fbbb 001e 3917 d3d6 ed43
000000c0: 06d6 e009 ded7 fbf2 192d 39c3 c95d 8cb3
000000d0: 16b6 96de 4267 e271 6a4c fb09 9cc4 81a8
000000e0: e4f3 7feb 1701 e721 dc38 f7b9 173e 13e3
000000f0: e5c1 342c 3a14 efff e9e2 3ed1 1a3c 2f21

tfl.pseudo_qconst13 i1 [56, 1, 1, 336]
14 29 12 5 -6 1 -6 -1
11 0 -11 -11 -8 6 13 -13
11 12 -18 -13 -10 18 -12 -31
34 9 11 -13 45 12 -52 1
30 -4 15 -11 15 14 4 -11
28 -15 34 -5 6 19 14 -7
2 9 1 -2 -28 35 23 -34
-20 23 -2 1 35 53 -4 -2
-2 2 -3 8 8 -38 -29 -15
22 38 1 -127 5 7 -5 35
14 7 -11 -16 23 17 19 30
-3 19 -10 -8 17 7 22 3
-8 -16 21 18 10 3 4 22
-24 -16 -6 7 -7 7 8 -5
-36 -29 5 11 2 32 -19 -61
-24 -5 30 15 -13 0 -7 25
7 -11 -14 -8 45 8 13 1
8 -13 7 60 -7 21 23 15
-7 16 14 14 -22 3 -21 -20
20 7 -28 15 34 -14 3 3
-8 -16 56 15 10 7 33 21
-5 -1 -7 18 6 11 15 -21
11 -13 -1 4 6 -7 14 26
-2 29 -4 -29 11 10 -6 -6
11 6 -12 -23 3 29 3 11
4 -7 22 44 31 26 33 -7
3 22 23 17 9 13 8 26
-43 -13 14 3 13 5 7 54
-48 16 15 -5 0 9 -9 26
-1 -8 -3 28 -11 6 -32 16
28 18 -2 1 -5 20 29 -3
18 -4 50 -5 20 4 -12 -8
00000000: 0e1d 0c05 fa01 faff 0b00 f5f5 f806 0df3
00000010: 0b0c eef3 f612 f4e1 2209 0bf3 2d0c cc01
00000020: 1efc 0ff5 0f0e 04f5 1cf1 22fb 0613 0ef9
00000030: 0209 01fe e423 17de ec17 fe01 2335 fcfe
00000040: fe02 fd08 08da e3f1 1626 0181 0507 fb23
00000050: 0e07 f5f0 1711 131e fd13 f6f8 1107 1603
00000060: f8f0 1512 0a03 0416 e8f0 fa07 f907 08fb
00000070: dce3 050b 0220 edc3 e8fb 1e0f f300 f919
00000080: 07f5 f2f8 2d08 0d01 08f3 073c f915 170f
00000090: f910 0e0e ea03 ebec 1407 e40f 22f2 0303
000000a0: f8f0 380f 0a07 2115 fbff f912 060b 0feb
000000b0: 0bf3 ff04 06f9 0e1a fe1d fce3 0b0a fafa
000000c0: 0b06 f4e9 031d 030b 04f9 162c 1f1a 21f9
000000d0: 0316 1711 090d 081a d5f3 0e03 0d05 0736
000000e0: d010 0ffb 0009 f71a fff8 fd1c f506 e010
000000f0: 1c12 fe01 fb14 1dfd 12fc 32fb 1404 f4f8

tfl.pseudo_qconst15 i1 [1, 3, 3, 336]
-4 18 97 11 -54 23 -31 44
37 28 17 -62 11 -15 -12 7
33 -33 -24 -15 19 -34 -2 1
-115 -38 31 74 33 34 -5 -36
-62 -8 40 -37 70 78 16 15
-6 53 9 -38 -58 0 6 38
116 -11 29 -17 14 77 124 -30
-1 11 37 -12 -94 41 17 -127
31 0 50 46 33 10 -12 -28
-75 -6 6 -30 -34 31 127 32
5 -47 35 -25 -21 27 18 -91
41 6 -19 -36 -4 -96 -7 47
-90 -2 15 -28 53 -55 48 0
10 33 29 -41 -33 -22 25 -37
-33 127 -40 -4 9 88 9 -49
23 118 80 -2 14 5 118 9
15 -4 35 11 -8 3 -62 19
-24 -16 10 16 -32 23 -40 30
-63 6 -2 80 -8 27 27 -2
-45 27 -84 -10 -30 35 61 33
-13 26 38 -73 13 97 43 4
7 -5 -8 7 -124 7 -88 74
14 29 2 18 -1 -47 8 7
-25 24 28 -19 -36 23 -33 82
60 24 12 -19 -50 67 2 -2
1 48 -3 109 37 16 -58 -84
31 80 127 61 13 -15 -10 -76
2 6 28 -14 -33 107 31 72
21 11 21 4 37 -62 -120 15
-34 34 31 -15 15 61 -45 32
11 20 77 16 -42 -31 -23 40
-73 -33 37 -89 12 10 -51 -32
00000000: fc12 610b ca17 e12c 251c 11c2 0bf1 f407
00000010: 21df e8f1 13de fe01 8dda 1f4a 2122 fbdc
00000020: c2f8 28db 464e 100f fa35 09da c600 0626
00000030: 74f5 1def 0e4d 7ce2 ff0b 25f4 a229 1181
00000040: 1f00 322e 210a f4e4 b5fa 06e2 de1f 7f20
00000050: 05d1 23e7 eb1b 12a5 2906 eddc fca0 f92f
00000060: a6fe 0fe4 35c9 3000 0a21 1dd7 dfea 19db
00000070: df7f d8fc 0958 09cf 1776 50fe 0e05 7609
00000080: 0ffc 230b f803 c213 e8f0 0a10 e017 d81e
00000090: c106 fe50 f81b 1bfe d31b acf6 e223 3d21
000000a0: f31a 26b7 0d61 2b04 07fb f807 8407 a84a
000000b0: 0e1d 0212 ffd1 0807 e718 1ced dc17 df52
000000c0: 3c18 0ced ce43 02fe 0130 fd6d 2510 c6ac
000000d0: 1f50 7f3d 0df1 f6b4 0206 1cf2 df6b 1f48
000000e0: 150b 1504 25c2 880f de22 1ff1 0f3d d320
000000f0: 0b14 4d10 d6e1 e928 b7df 25a7 0c0a cde0

tfl.pseudo_qconst17 i1 [336, 1, 1, 56]
-103 49 13 18 -25 -46 -35 19
-2 -44 82 -33 -24 -43 -73 35
4 -6 -40 -9 7 38 42 -11
-7 -70 63 -42 44 79 18 -1
-61 -7 -9 -3 25 16 -50 49
18 -35 -10 -57 35 58 127 -1
93 -58 -40 -75 -35 37 -61 -67
-32 -42 8 50 31 27 -30 29
-13 -21 68 -6 -40 1 26 -4
38 -65 52 3 -35 -123 63 27
98 3 38 -73 42 75 6 -44
-87 -53 -47 13 -121 -127 28 69
-10 22 -12 107 -37 -49 80 -62
31 25 -49 -33 -10 -43 22 75
-20 54 -60 40 -4 20 -127 53
69 23 10 16 -24 -43 -72 -40
-70 -59 22 29 110 -58 -14 -49
-22 -68 32 -13 -20 28 -23 -10
-36 -24 11 25 25 68 -57 -4
-30 -7 4 -2 75 28 -38 53
-20 -24 -86 -110 80 37 45 -54
-10 53 51 -41 -23 -69 73 -52
127 113 -105 -67 -36 25 48 -9
-62 90 3 -69 42 -43 49 91
97 -1 -92 34 -6 -36 16 12
8 -27 -38 62 -39 24 -15 18
62 -38 7 1 -20 -13 -48 -11
32 -25 -95 -2 7 47 14 26
58 117 18 -67 -23 36 -19 53
40 22 -23 -71 49 8 63 -11
35 -17 -56 44 -52 -27 23 -36
88 5 -14 10 -16 34 -4 -18
00000000: 9931 0d12 e7d2 dd13 fed4 52df e8d5 b723
00000010: 04fa d8f7 0726 2af5 f9ba 3fd6 2c4f 12ff
00000020: c3f9 f7fd 1910 ce31 12dd f6c7 233a 7fff
00000030: 5dc6 d8b5 dd25 c3bd e0d6 0832 1f1b e21d
00000040: f3eb 44fa d801 1afc 26bf 3403 dd85 3f1b
00000050: 6203 26b7 2a4b 06d4 a9cb d10d 8781 1c45
00000060: f616 f46b dbcf 50c2 1f19 cfdf f6d5 164b
00000070: ec36 c428 fc14 8135 4517 0a10 e8d5 b8d8
00000080: bac5 161d 6ec6 f2cf eabc 20f3 ec1c e9f6
00000090: dce8 0b19 1944 c7fc e2f9 04fe 4b1c da35
000000a0: ece8 aa92 5025 2dca f635 33d7 e9bb 49cc
000000b0: 7f71 97bd dc19 30f7 c25a 03bb 2ad5 315b
000000c0: 61ff a422 fadc 100c 08e5 da3e d918 f112
000000d0: 3eda 0701 ecf3 d0f5 20e7 a1fe 072f 0e1a
000000e0: 3a75 12bd e924 ed35 2816 e9b9 3108 3ff5
000000f0: 23ef c82c cce5 17dc 5805 f20a f022 fcee

tfl.pseudo_qconst19 i1 [56, 1, 1, 336]
-19 -5 -6 49 13 -69 16 -8
37 -10 8 29 14 13 -1 21
34 16 -14 -7 16 2 -4 -127
-12 1 6 7 35 4 -12 14
14 -31 47 8 43 33 25 -33
23 59 -9 20 25 12 -14 -6
-41 6 9 30 21 2 -25 -2
17 0 -7 27 16 94 19 -12
-9 3 49 53 70 44 3 8
3 -17 68 -18 18 41 9 31
26 24 69 56 40 -29 -15 7
8 45 2 7 -42 30 -27 -11
-47 -20 5 -32 33 -15 26 21
12 13 30 -14 24 19 -15 10
-8 -29 20 -24 -39 6 -28 -14
29 -30 15 5 7 12 7 -14
6 36 -30 10 19 39 31 -3
31 42 62 -13 32 -16 -17 12
-20 9 51 20 8 -4 32 13
-52 27 19 44 13 24 54 0
-12 -61 -27 16 -41 3 -7 43
-62 -8 10 14 32 65 8 2
-17 41 27 1 -27 67 -21 25
-19 -4 10 -18 -9 -13 -31 95
41 23 25 47 34 48 31 -18
22 -1 45 -12 24 19 30 -1
0 27 19 43 -3 47 80 -27
32 35 44 14 19 37 21 22
-1 17 22 0 25 19 33 10
23 -37 58 25 36 16 15 -17
-39 44 -5 32 27 -24 40 52
-26 -8 13 39 17 -3 15 59
00000000: edfb fa31 0dbb 10f8 25f6 081d 0e0d ff15
00000010: 2210 f2f9 1002 fc81 f401 0607 2304 f40e
00000020: 0ee1 2f08 2b21 19df 173b f714 190c f2fa
00000030: d706 091e 1502 e7fe 1100 f91b 105e 13f4
00000040: f703 3135 462c 0308 03ef 44ee 1229 091f
00000050: 1a18 4538 28e3 f107 082d 0207 d61e e5f5
00000060: d1ec 05e0 21f1 1a15 0c0d 1ef2 1813 f10a
00000070: f8e3 14e8 d906 e4f2 1de2 0f05 070c 07f2
00000080: 0624 e20a 1327 1ffd 1f2a 3ef3 20f0 ef0c
00000090: ec09 3314 08fc 200d cc1b 132c 0d18 3600
000000a0: f4c3 e510 d703 f92b c2f8 0a0e 2041 0802
000000b0: ef29 1b01 e543 eb19 edfc 0aee f7f3 e15f
000000c0: 2917 192f 2230 1fee 16ff 2df4 1813 1eff
000000d0: 001b 132b fd2f 50e5 2023 2c0e 1325 1516
000000e0: ff11 1600 1913 210a 17db 3a19 2410 0fef
000000f0: d92c fb20 1be8 2834 e6f8 0d27 11fd 0f3b

tfl.pseudo_qconst21 i1 [1, 3, 3, 336]
-42 84 17 45 22 55 -16 36
0 -22 -3 19 -112 23 -103 28
12 46 -17 -50 40 21 31 -87
-8 -50 57 20 10 -20 -47 -5
10 14 18 -46 -1 14 53 -2
-70 -6 -19 -3 -2 28 -32 -10
-117 1 3 -103 -9 -75 -29 -24
16 6 30 -10 27 14 6 127
-68 -92 23 -6 22 18 16 48
-28 24 27 -43 49 56 16 24
8 54 19 46 5 -109 -80 43
-9 -4 56 16 -53 8 96 -24
5 28 -11 127 99 -8 1 36
33 -4 -19 28 -29 92 -38 29
22 -127 -37 -19 13 35 -34 51
-20 -10 -3 84 30 1 -102 -21
-119 -19 -50 26 -12 22 3 -7
11 -8 -18 17 -5 28 -98 -1
-29 -6 3 -31 26 -90 40 54
63 56 8 19 -20 47 16 25
11 -27 127 -10 78 -12 31 -11
-15 44 -22 -26 20 40 23 28
-29 -127 16 -10 -22 23 26 20
24 20 10 -39 1 -5 26 -17
-1 -11 -23 22 22 35 35 -37
24 -50 -55 5 27 -4 -124 -113
66 26 -127 17 -24 1 30 9
31 32 -23 33 45 -9 9 12
59 79 23 12 53 39 36 -41
28 -91 2 -11 11 14 -127 -28
10 2 16 55 33 15 69 10
2 -11 -127 -110 38 8 -4 19
00000000: d654 112d 1637 f024 00ea fd13 9017 991c
00000010: 0c2e efce 2815 1fa9 f8ce 3914 0aec d1fb
00000020: 0a0e 12d2 ff0e 35fe bafa edfd fe1c e0f6
00000030: 8b01 0399 f7b5 e3e8 1006 1ef6 1b0e 067f
00000040: bca4 17fa 1612 1030 e418 1bd5 3138 1018
00000050: 0836 132e 0593 b02b f7fc 3810 cb08 60e8
00000060: 051c f57f 63f8 0124 21fc ed1c e35c da1d
00000070: 1681 dbed 0d23 de33 ecf6 fd54 1e01 9aeb
00000080: 89ed ce1a f416 03f9 0bf8 ee11 fb1c 9eff
00000090: e3fa 03e1 1aa6 2836 3f38 0813 ec2f 1019
000000a0: 0be5 7ff6 4ef4 1ff5 f12c eae6 1428 171c
000000b0: e381 10f6 ea17 1a14 1814 0ad9 01fb 1aef
000000c0: fff5 e916 1623 23db 18ce c905 1bfc 848f
000000d0: 421a 8111 e801 1e09 1f20 e921 2df7 090c
000000e0: 3b4f 170c 3527 24d7 1ca5 02f5 0b0e 81e4
000000f0: 0a02 1037 210f 450a 02f5 8192 2608 fc13

tfl.pseudo_qconst23 i1 [336, 1, 1, 56]
5 -30 -50 97 -20 -101 71 29
-9 -81 -70 93 -65 21 13 45
-44 -127 2 48 -43 11 73 0
32 7 -40 -26 63 107 12 17
-34 25 24 -2 -20 38 47 19
45 -6 -50 -26 93 44 -5 50
2 -9 -103 -55 21 25 33 -107
-51 3 7 -25 24 3 -75 -28
21 45 21 -6 2 19 69 -20
-23 -19 70 4 -13 21 127 3
36 25 36 -10 7 -24 -28 -7
4 6 15 -61 7 -7 3 -5
-1 13 34 -3 50 33 16 -28
-10 -3 -16 19 27 -26 -32 -19
22 -47 4 -75 30 0 -127 -118
3 6 -36 23 55 105 -22 117
-5 3 -66 54 18 -23 -42 127
42 36 -95 29 98 -9 -7 17
113 -26 37 -37 -86 -27 83 -19
10 61 28 77 -4 46 33 -85
3 -40 -102 -76 34 -41 -22 45
90 -17 -17 -12 61 -43 53 19
6 66 33 5 -25 42 -27 16
12 35 19 -19 -16 -2 16 33
3 -21 -37 53 4 -86 -3 -1
7 0 5 -9 41 38 -23 9
-127 -6 10 29 -20 8 -10 22
9 52 43 13 49 -18 0 -28
0 9 -36 -76 -15 -37 67 57
67 -127 -20 -53 11 -7 -90 21
-13 -8 10 43 29 -19 -60 -9
34 20 23 -17 -60 16 0 55
00000000: 05e2 ce61 ec9b 471d f7af ba5d bf15 0d2d
00000010: d481 0230 d50b 4900 2007 d8e6 3f6b 0c11
00000020: de19 18fe ec26 2f13 2dfa cee6 5d2c fb32
00000030: 02f7 99c9 1519 2195 cd03 07e7 1803 b5e4
00000040: 152d 15fa 0213 45ec e9ed 4604 f315 7f03
00000050: 2419 24f6 07e8 e4f9 0406 0fc3 07f9 03fb
00000060: ff0d 22fd 3221 10e4 f6fd f013 1be6 e0ed
00000070: 16d1 04b5 1e00 818a 0306 dc17 3769 ea75
00000080: fb03 be36 12e9 d67f 2a24 a11d 62f7 f911
00000090: 71e6 25db aae5 53ed 0a3d 1c4d fc2e 21ab
000000a0: 03d8 9ab4 22d7 ea2d 5aef eff4 3dd5 3513
000000b0: 0642 2105 e72a e510 0c23 13ed f0fe 1021
000000c0: 03eb db35 04aa fdff 0700 05f7 2926 e909
000000d0: 81fa 0a1d ec08 f616 0934 2b0d 31ee 00e4
000000e0: 0009 dcb4 f1db 4339 4381 eccb 0bf9 a615
000000f0: f3f8 0a2b 1ded c4f7 2214 17ef c410 0037

tfl.pseudo_qconst25 i1 [56, 1, 1, 192]
-30 92 10 -16 7 12 -40 16
-14 -12 6 35 -46 14 -45 39
-6 -25 73 15 -1 41 18 -34
-1 -14 44 52 -38 3 -4 7
16 25 37 13 -23 13 6 -8
-17 -5 -16 1 29 31 31 22
31 -27 -35 -27 -9 -13 22 5
4 50 9 4 -6 3 -73 25
1 11 15 40 2 77 37 59
-40 -55 -14 60 55 18 3 7
-4 -25 26 -37 71 -4 1 18
-11 -1 -15 32 30 39 10 7
9 37 64 -62 6 -6 -8 29
40 -7 -12 -24 46 -34 15 9
33 -14 -21 -72 42 -31 -38 63
-81 53 28 -65 -127 16 20 9
-19 -2 -22 -27 22 5 -16 54
35 -4 -15 31 7 14 40 -20
-43 -14 20 -11 -19 18 -50 11
58 -10 4 34 61 -19 57 -25
71 -18 9 25 2 -39 37 11
-56 -71 24 -17 92 -12 28 64
-16 -17 6 10 -38 -2 38 45
-11 -2 -17 1 -71 8 -4 -13
-7 32 71 10 -18 -3 -65 52
-10 -25 -75 19 14 -22 -75 -12
57 -39 -57 -26 1 30 10 -12
-6 2 -8 49 -4 -5 -42 49
-22 -24 69 -35 48 -62 98 32
-45 -127 62 -1 -80 42 -62 27
-3 -38 -110 14 16 -55 -22 -109
9 17 -79 34 -40 -38 -14 -48
00000000: e25c 0af0 070c d810 f2f4 0623 d20e d327
00000010: fae7 490f ff29 12de fff2 2c34 da03 fc07
00000020: 1019 250d e90d 06f8 effb f001 1d1f 1f16
00000030: 1fe5 dde5 f7f3 1605 0432 0904 fa03 b719
00000040: 010b 0f28 024d 253b d8c9 f23c 3712 0307
00000050: fce7 1adb 47fc 0112 f5ff f120 1e27 0a07
00000060: 0925 40c2 06fa f81d 28f9 f4e8 2ede 0f09
00000070: 21f2 ebb8 2ae1 da3f af35 1cbf 8110 1409
00000080: edfe eae5 1605 f036 23fc f11f 070e 28ec
00000090: d5f2 14f5 ed12 ce0b 3af6 0422 3ded 39e7
000000a0: 47ee 0919 02d9 250b c8b9 18ef 5cf4 1c40
000000b0: f0ef 060a dafe 262d f5fe ef01 b908 fcf3
000000c0: f920 470a eefd bf34 f6e7 b513 0eea b5f4
000000d0: 39d9 c7e6 011e 0af4 fa02 f831 fcfb d631
000000e0: eae8 45dd 30c2 6220 d381 3eff b02a c21b
000000f0: fdda 920e 10c9 ea93 0911 b122 d8da f2d0

tfl.pseudo_qconst27 i1 [1, 3, 3, 192]
82 74 -61 -57 78 -85 70 83
-75 -90 -75 -68 70 69 -62 -48
77 -102 -65 73 74 109 -68 61
84 57 59 72 -66 -61 -23 73
80 98 -101 85 79 51 79 -65
-69 -62 -81 49 72 73 59 74
-87 -81 84 -62 66 104 -63 93
74 -101 54 -95 -71 109 61 66
-88 -61 73 70 -79 -87 80 -69
101 76 91 -67 64 73 -100 68
85 -64 80 106 81 -69 88 72
84 -112 74 76 70 70 57 -71
-70 102 100 76 72 -71 -59 76
75 76 80 70 -58 104 59 78
-78 77 62 -53 -62 -76 78 71
61 -64 58 67 -61 -82 -93 71
58 76 74 -77 -87 64 83 -56
-16 -60 -53 73 64 -84 -94 60
-70 72 -68 68 -70 -86 57 64
-115 93 -59 -77 55 88 -55 -72
77 -99 75 -114 92 75 -74 63
-66 -44 -69 96 64 -67 71 57
74 80 -58 83 -118 68 86 76
-22 74 90 49 68 71 -73 68
101 91 -85 -85 100 -105 84 109
-96 -114 -97 -95 92 95 -82 -69
89 -127 -93 89 89 -14 -97 83
98 74 81 94 -86 -84 -5 97
96 -40 -127 110 99 66 93 -91
-88 -79 -97 65 92 100 79 88
74 -104 98 -83 89 127 -82 118
94 23 81 -107 -90 127 84 81
00000000: 524a c3c7 4eab 4653 b5a6 b5bc 4645 c2d0
00000010: 4d9a bf49 4a6d bc3d 5439 3b48 bec3 e949
00000020: 5062 9b55 4f33 4fbf bbc2 af31 4849 3b4a
00000030: a9af 54c2 4268 c15d 4a9b 36a1 b96d 3d42
00000040: a8c3 4946 b1a9 50bb 654c 5bbd 4049 9c44
00000050: 55c0 506a 51bb 5848 5490 4a4c 4646 39b9
00000060: ba66 644c 48b9 c54c 4b4c 5046 c668 3b4e
00000070: b24d 3ecb c2b4 4e47 3dc0 3a43 c3ae a347
00000080: 3a4c 4ab3 a940 53c8 f0c4 cb49 40ac a23c
00000090: ba48 bc44 baaa 3940 8d5d c5b3 3758 c9b8
000000a0: 4d9d 4b8e 5c4b b63f bed4 bb60 40bd 4739
000000b0: 4a50 c653 8a44 564c ea4a 5a31 4447 b744
000000c0: 655b abab 6497 546d a08e 9fa1 5c5f aebb
000000d0: 5981 a359 59f2 9f53 624a 515e aaac fb61
000000e0: 60d8 816e 6342 5da5 a8b1 9f41 5c64 4f58
000000f0: 4a98 62ad 597f ae76 5e17 5195 a67f 5451

tfl.pseudo_qconst29 i1 [192, 1, 1, 32]
-12 -51 17 15 -11 -38 -15 64
-31 -20 22 16 -127 -12 5 -15
-31 -74 -32 84 -20 21 -17 -33
15 -39 -36 -44 -8 -121 4 8
2 -30 -26 14 -54 -11 7 30
16 -26 -127 -13 16 34 -2 19
-38 -13 18 -64 -40 30 -29 -11
19 -49 -37 35 -50 -6 -1 -16
54 -23 55 -90 83 -1 -4 0
22 -29 32 23 10 -5 102 22
-44 -58 -7 -41 -18 16 -4 -25
-18 46 4 -101 16 3 26 127
-25 -127 2 -13 -17 -12 -65 -11
-4 -6 -22 4 -1 3 -15 -47
-28 -12 -3 -3 -40 -1 6 -6
9 21 6 0 24 54 26 2
-127 -13 -28 -14 -70 -39 103 -46
10 -40 -42 24 38 27 -3 -5
-68 -51 31 -41 -7 3 19 -16
43 31 3 1 -25 20 67 -7
72 8 -12 -48 61 59 4 11
127 3 99 32 14 43 -36 -36
-47 42 -11 -65 -43 -4 -52 -72
75 11 -56 0 21 -21 56 28
-1 -12 8 -12 -6 23 -38 -31
-46 68 -5 -1 -2 -109 5 -7
62 -13 11 15 28 0 -28 58
-43 -27 71 54 -43 -16 -127 -1
64 -74 51 5 4 -20 92 -1
-13 3 32 12 -16 29 25 53
-126 94 5 1 12 9 -39 35
2 38 13 -23 127 -34 27 57
00000000: f4cd 110f f5da f140 e1ec 1610 81f4 05f1
00000010: e1b6 e054 ec15 efdf 0fd9 dcd4 f887 0408
00000020: 02e2 e60e caf5 071e 10e6 81f3 1022 fe13
00000030: daf3 12c0 d81e e3f5 13cf db23 cefa fff0
00000040: 36e9 37a6 53ff fc00 16e3 2017 0afb 6616
00000050: d4c6 f9d7 ee10 fce7 ee2e 049b 1003 1a7f
00000060: e781 02f3 eff4 bff5 fcfa ea04 ff03 f1d1
00000070: e4f4 fdfd d8ff 06fa 0915 0600 1836 1a02
00000080: 81f3 e4f2 bad9 67d2 0ad8 d618 261b fdfb
00000090: bccd 1fd7 f903 13f0 2b1f 0301 e714 43f9
000000a0: 4808 f4d0 3d3b 040b 7f03 6320 0e2b dcdc
000000b0: d12a f5bf d5fc ccb8 4b0b c800 15eb 381c
000000c0: fff4 08f4 fa17 dae1 d244 fbff fe93 05f9
000000d0: 3ef3 0b0f 1c00 e43a d5e5 4736 d5f0 81ff
000000e0: 40b6 3305 04ec 5cff f303 200c f01d 1935
000000f0: 825e 0501 0c09 d923 0226 0de9 7fde 1b39

tfl.pseudo_qconst31 i1 [32, 1, 1, 192]
-42 9 16 -12 -8 35 -28 -95
14 -14 39 -13 -33 -11 -10 6
14 -14 -2 34 -20 -57 0 0
17 -13 -21 -16 23 -48 9 11
1 13 -9 12 3 73 31 1
-10 4 -12 -62 28 35 11 -19
-2 16 -49 -26 -19 -13 -10 45
-2 -10 -2 31 14 -24 -38 -59
2 6 -47 -50 -39 -20 -55 9
1 39 -11 22 1 -18 43 -49
-32 -32 34 -3 18 -71 -9 -1
-5 -14 15 -17 28 28 66 4
-26 -16 -9 -31 -7 -10 -93 -12
19 34 13 29 43 44 -22 -7
11 -5 -1 -19 -8 -38 1 34
81 7 -44 0 -11 -37 -19 -23
-75 5 11 25 0 -33 7 22
-17 0 -50 17 12 38 -61 -25
10 50 17 -30 -28 -75 -6 25
23 106 17 20 -37 13 -36 23
24 -17 127 21 -2 28 -3 -14
25 27 16 21 48 -10 -25 5
-31 4 -48 -17 -24 14 21 11
-4 -12 -12 -14 -25 3 43 86
3 -13 18 16 -10 -4 24 25
-116 4 -4 15 11 -1 -13 -35
-92 -29 6 24 1 -2 -2 -4
-9 2 12 3 17 37 1 20
-9 -5 3 11 -7 -59 -2 25
-27 0 -5 -21 -40 -18 -4 87
17 1 24 -39 -1 -7 -4 12
11 6 -17 3 -1 42 5 -59
00000000: d609 10f4 f823 e4a1 0ef2 27f3 dff5 f606
00000010: 0ef2 fe22 ecc7 0000 11f3 ebf0 17d0 090b
00000020: 010d f70c 0349 1f01 f604 f4c2 1c23 0bed
00000030: fe10 cfe6 edf3 f62d fef6 fe1f 0ee8 dac5
00000040: 0206 d1ce d9ec c909 0127 f516 01ee 2bcf
00000050: e0e0 22fd 12b9 f7ff fbf2 0fef 1c1c 4204
00000060: e6f0 f7e1 f9f6 a3f4 1322 0d1d 2b2c eaf9
00000070: 0bfb ffed f8da 0122 5107 d400 f5db ede9
00000080: b505 0b19 00df 0716 ef00 ce11 0c26 c3e7
00000090: 0a32 11e2 e4b5 fa19 176a 1114 db0d dc17
000000a0: 18ef 7f15 fe1c fdf2 191b 1015 30f6 e705
000000b0: e104 d0ef e80e 150b fcf4 f4f2 e703 2b56
000000c0: 03f3 1210 f6fc 1819 8c04 fc0f 0bff f3dd
000000d0: a4e3 0618 01fe fefc f702 0c03 1125 0114
000000e0: f7fb 030b f9c5 fe19 e500 fbeb d8ee fc57
000000f0: 1101 18d9 fff9 fc0c 0b06 ef03 ff2a 05c5

tfl.pseudo_qconst33 i1 [1, 3, 3, 192]
68 127 9 38 -25 -3 -4 -80
-2 -15 10 33 55 -11 7 -90
73 14 10 5 -14 52 21 116
-23 -21 17 -24 25 18 122 -86
-46 10 -47 -21 -20 -9 -125 34
-104 47 -16 -125 25 62 -71 -19
28 28 -6 -20 -13 48 14 -48
-18 73 14 -30 -41 -15 -1 -33
62 -60 22 23 -17 -75 49 -2
-22 -49 -1 24 3 14 -112 -14
19 -20 -11 6 28 42 -10 -20
32 66 -91 65 83 42 -27 -37
50 -36 -48 20 16 12 13 -49
45 -22 -9 34 -11 32 -9 3
13 16 33 -42 -107 -31 -127 8
-25 14 -25 98 -35 -40 54 -93
43 -11 -23 48 46 -4 9 34
-44 42 19 -66 127 -21 -44 58
-25 9 -51 24 53 11 45 21
-114 1 -5 15 32 13 -3 4
10 -62 28 51 -40 -19 7 3
78 28 21 -84 -5 67 -52 3
32 -17 30 -47 8 64 27 -12
-12 14 11 -127 -3 41 11 -46
125 -3 16 -127 -67 -38 3 -121
38 37 -126 16 123 23 24 92
-115 4 -2 -49 -1 77 -7 126
124 -15 31 21 24 21 127 -127
23 127 -127 70 19 -29 -50 -31
-96 -26 -75 21 79 -83 28 -44
20 38 127 54 -24 127 64 -104
-58 79 -1 -45 -93 26 52 -99
00000000: 447f 0926 e7fd fcb0 fef1 0a21 37f5 07a6
00000010: 490e 0a05 f234 1574 e9eb 11e8 1912 7aaa
00000020: d20a d1eb ecf7 8322 982f f083 193e b9ed
00000030: 1c1c faec f330 0ed0 ee49 0ee2 d7f1 ffdf
00000040: 3ec4 1617 efb5 31fe eacf ff18 030e 90f2
00000050: 13ec f506 1c2a f6ec 2042 a541 532a e5db
00000060: 32dc d014 100c 0dcf 2dea f722 f520 f703
00000070: 0d10 21d6 95e1 8108 e70e e762 ddd8 36a3
00000080: 2bf5 e930 2efc 0922 d42a 13be 7feb d43a
00000090: e709 cd18 350b 2d15 8e01 fb0f 200d fd04
000000a0: 0ac2 1c33 d8ed 0703 4e1c 15ac fb43 cc03
000000b0: 20ef 1ed1 0840 1bf4 f40e 0b81 fd29 0bd2
000000c0: 7dfd 1081 bdda 0387 2625 8210 7b17 185c
000000d0: 8d04 fecf ff4d f97e 7cf1 1f15 1815 7f81
000000e0: 177f 8146 13e3 cee1 a0e6 b515 4fad 1cd4
000000f0: 1426 7f36 e87f 4098 c64f ffd3 a31a 349d

tfl.pseudo_qconst35 i1 [192, 1, 1, 32]
-105 44 127 27 9 13 30 -1
20 -15 -49 60 97 47 -52 -74
-85 -42 11 36 -51 -68 -7 3
1 8 -24 -5 -13 60 -24 -3
-64 -29 -127 27 2 -24 -22 -26
24 -102 22 -36 16 27 19 43
-36 -40 -20 36 8 -55 94 -36
15 -10 61 23 -6 -34 -42 27
36 23 -60 61 29 -3 -4 41
16 12 2 9 -79 -30 -52 -77
-127 -53 15 6 -17 -21 -39 57
65 -78 35 -31 81 -83 54 -55
14 -16 100 -10 0 37 -19 -89
-19 -14 -17 -4 -32 22 -36 48
35 -11 -47 -30 23 39 0 17
33 -127 -54 20 -34 -21 -8 21
-108 27 -26 66 16 -15 7 72
22 64 66 -103 126 82 -34 -32
14 43 -61 -20 -82 -42 29 124
-65 -127 7 -17 27 68 -80 7
10 7 -20 -25 -83 27 127 17
-30 -26 34 15 -18 13 -8 87
-28 35 1 -4 -36 -1 24 8
27 -32 -8 10 -19 -66 33 0
16 -50 -75 21 47 43 18 -87
-72 -25 127 56 46 -80 -41 -17
-24 -42 -60 -126 39 58 6 42
15 -41 89 67 23 20 -12 4
127 39 -62 40 23 -32 34 47
13 -24 -70 -35 37 -4 -89 -19
61 -26 -89 -103 -69 32 -2 -4
54 -56 11 -45 44 14 37 13
00000000: 972c 7f1b 090d 1eff 14f1 cf3c 612f ccb6
00000010: abd6 0b24 cdbc f903 0108 e8fb f33c e8fd
00000020: c0e3 811b 02e8 eae6 189a 16dc 101b 132b
00000030: dcd8 ec24 08c9 5edc 0ff6 3d17 fade d61b
00000040: 2417 c43d 1dfd fc29 100c 0209 b1e2 ccb3
00000050: 81cb 0f06 efeb d939 41b2 23e1 51ad 36c9
00000060: 0ef0 64f6 0025 eda7 edf2 effc e016 dc30
00000070: 23f5 d1e2 1727 0011 2181 ca14 deeb f815
00000080: 941b e642 10f1 0748 1640 4299 7e52 dee0
00000090: 0e2b c3ec aed6 1d7c bf81 07ef 1b44 b007
000000a0: 0a07 ece7 ad1b 7f11 e2e6 220f ee0d f857
000000b0: e423 01fc dcff 1808 1be0 f80a edbe 2100
000000c0: 10ce b515 2f2b 12a9 b8e7 7f38 2eb0 d7ef
000000d0: e8d6 c482 273a 062a 0fd7 5943 1714 f404
000000e0: 7f27 c228 17e0 222f 0de8 badd 25fc a7ed
000000f0: 3de6 a799 bb20 fefc 36c8 0bd3 2c0e 250d

tfl.pseudo_qconst37 i1 [32, 1, 1, 192]
10 -3 -79 -7 -45 -41 -24 28
9 -31 -13 -33 25 30 -1 -13
25 5 17 -50 47 -17 -9 1
-26 -24 9 -10 -22 -64 4 7
63 -15 30 78 26 6 0 8
35 -108 -54 30 13 36 1 -7
58 -67 -33 49 -46 -32 40 4
-26 -12 -66 127 78 -30 -57 20
0 -6 -55 4 30 -9 -16 23
-11 -16 3 17 -18 -13 -56 -34
68 -37 -13 -4 -12 -55 -15 8
17 6 8 -3 16 -29 -5 -33
5 -20 42 -67 23 -31 -7 4
-24 14 50 -64 5 88 45 0
39 1 -27 -17 -1 9 -6 10
-7 12 0 23 -3 22 30 -62
20 33 -3 -64 -8 37 3 -9
77 6 22 42 -49 33 -20 0
-66 -8 4 -22 77 13 -7 -45
65 -11 36 -16 -93 -21 -19 -39
-37 -34 -35 22 56 5 18 59
-25 77 -36 11 31 36 -23 11
-1 -55 21 21 -53 53 13 39
-51 -11 5 1 -34 -82 -54 53
-7 -3 37 -6 -2 26 3 -41
-9 6 -2 -3 -12 -1 7 -11
1 -53 -19 -9 -2 -13 -3 35
4 -33 27 -1 9 21 18 -30
-21 -14 7 -21 -127 -20 21 -14
-27 1 52 9 -16 18 -12 -9
20 29 -14 84 10 -4 14 -3
-31 -39 -27 -19 29 27 10 12
00000000: 0afd b1f9 d3d7 e81c 09e1 f3df 191e fff3
00000010: 1905 11ce 2fef f701 e6e8 09f6 eac0 0407
00000020: 3ff1 1e4e 1a06 0008 2394 ca1e 0d24 01f9
00000030: 3abd df31 d2e0 2804 e6f4 be7f 4ee2 c714
00000040: 00fa c904 1ef7 f017 f5f0 0311 eef3 c8de
00000050: 44db f3fc f4c9 f108 1106 08fd 10e3 fbdf
00000060: 05ec 2abd 17e1 f904 e80e 32c0 0558 2d00
00000070: 2701 e5ef ff09 fa0a f90c 0017 fd16 1ec2
00000080: 1421 fdc0 f825 03f7 4d06 162a cf21 ec00
00000090: bef8 04ea 4d0d f9d3 41f5 24f0 a3eb edd9
000000a0: dbde dd16 3805 123b e74d dc0b 1f24 e90b
000000b0: ffc9 1515 cb35 0d27 cdf5 0501 deae ca35
000000c0: f9fd 25fa fe1a 03d7 f706 fefd f4ff 07f5
000000d0: 01cb edf7 fef3 fd23 04df 1bff 0915 12e2
000000e0: ebf2 07eb 81ec 15f2 e501 3409 f012 f4f7
000000f0: 141d f254 0afc 0efd e1d9 e5ed 1d1b 0a0c

tfl.pseudo_qconst39 i1 [1, 3, 3, 192]
1 -24 -16 -38 63 -39 -1 2
3 26 53 8 -8 13 21 -21
-31 -127 17 54 7 1 48 19
-5 -42 25 15 -33 -65 78 37
-79 -57 0 -4 -76 -14 -34 -4
-23 -81 -127 -37 -48 -52 4 -29
21 -102 2 -106 53 29 -74 -21
-13 6 8 12 -33 97 -8 45
22 24 -49 -23 39 45 35 40
20 10 -18 -37 -29 -80 -2 8
-98 -20 -7 33 25 52 -76 6
10 -119 -13 -24 22 21 36 -7
-87 -89 10 17 -25 -7 -40 11
2 62 5 35 -13 -51 9 -20
-11 -18 7 -10 -2 10 -33 4
-17 95 -3 77 35 114 -8 127
-40 28 69 35 -3 -21 40 24
37 29 -28 -9 -11 -7 5 47
48 41 41 21 -69 20 29 -65
34 -2 42 -98 12 -3 -34 34
-64 -30 7 16 47 -15 -75 22
12 -82 25 -121 42 44 26 -82
50 80 31 -15 17 -2 4 2
-18 13 62 -17 -18 22 -120 11
6 36 35 -127 127 -127 -127 -81
-28 20 5 -81 9 2 93 -4
-29 -94 94 45 39 -14 127 -36
-12 43 9 16 27 -115 -71 -67
-81 36 82 8 -127 -7 127 -5
21 -43 -111 -127 127 -97 -6 10
6 8 127 -73 127 113 -67 7
-55 111 -115 22 -11 127 127 127
00000000: 01e8 f0da 3fd9 ff02 031a 3508 f80d 15eb
00000010: e181 1136 0701 3013 fbd6 190f dfbf 4e25
00000020: b1c7 00fc b4f2 defc e9af 81db d0cc 04e3
00000030: 159a 0296 351d b6eb f306 080c df61 f82d
00000040: 1618 cfe9 272d 2328 140a eedb e3b0 fe08
00000050: 9eec f921 1934 b406 0a89 f3e8 1615 24f9
00000060: a9a7 0a11 e7f9 d80b 023e 0523 f3cd 09ec
00000070: f5ee 07f6 fe0a df04 ef5f fd4d 2372 f87f
00000080: d81c 4523 fdeb 2818 251d e4f7 f5f9 052f
00000090: 3029 2915 bb14 1dbf 22fe 2a9e 0cfd de22
000000a0: c0e2 0710 2ff1 b516 0cae 1987 2a2c 1aae
000000b0: 3250 1ff1 11fe 0402 ee0d 3eef ee16 880b
000000c0: 0624 2381 7f81 81af e414 05af 0902 5dfc
000000d0: e3a2 5e2d 27f2 7fdc f42b 0910 1b8d b9bd
000000e0: af24 5208 81f9 7ffb 15d5 9181 7f9f fa0a
000000f0: 0608 7fb7 7f71 bd07 c96f 8d16 f57f 7f7f

tfl.pseudo_qconst41 i1 [192, 1, 1, 32]
-3 -24 7 -40 21 22 -7 127
-9 -19 -12 -7 -15 17 22 38
-19 -2 -13 -15 46 13 11 -7
-25 24 61 17 15 -16 44 -28
16 3 8 -17 -8 11 13 43
-34 72 3 32 -4 -80 -13 3
4 -14 -51 -41 -13 -127 -51 13
-45 20 6 -14 -7 0 -1 -11
21 -4 23 29 0 28 0 81
-8 -127 -15 55 16 -59 -63 -18
97 1 13 -18 11 -25 -99 -14
-23 -23 -7 -15 -2 -10 51 -47
10 26 -20 -4 -17 -5 41 -47
46 50 -3 37 28 42 -72 -127
-37 -27 65 -19 -3 -15 -7 -35
15 35 -49 -43 34 -10 14 30
-36 -50 6 68 64 7 -25 40
82 35 -46 8 66 -6 -95 31
-58 -2 -52 -19 -38 42 -92 -127
41 -11 -40 -35 55 60 6 -29
-7 -9 12 -68 6 24 -1 46
-80 31 -4 -127 -12 85 51 35
13 18 32 12 72 37 -72 70
66 47 56 74 15 10 10 -36
-62 -42 -41 17 26 -17 -38 74
0 127 100 23 -6 107 9 18
-2 87 -14 32 30 69 123 48
-8 -50 -126 69 -9 17 -28 -23
52 127 3 -76 -54 15 41 37
1 -13 43 26 11 -15 7 -71
-20 -44 78 -72 7 -16 33 116
66 7 13 -37 -53 34 19 46
00000000: fde8 07d8 1516 f97f f7ed f4f9 f111 1626
00000010: edfe f3f1 2e0d 0bf9 e718 3d11 0ff0 2ce4
00000020: 1003 08ef f80b 0d2b de48 0320 fcb0 f303
00000030: 04f2 cdd7 f381 cd0d d314 06f2 f900 fff5
00000040: 15fc 171d 001c 0051 f881 f137 10c5 c1ee
00000050: 6101 0dee 0be7 9df2 e9e9 f9f1 fef6 33d1
00000060: 0a1a ecfc effb 29d1 2e32 fd25 1c2a b881
00000070: dbe5 41ed fdf1 f9dd 0f23 cfd5 22f6 0e1e
00000080: dcce 0644 4007 e728 5223 d208 42fa a11f
00000090: c6fe cced da2a a481 29f5 d8dd 373c 06e3
000000a0: f9f7 0cbc 0618 ff2e b01f fc81 f455 3323
000000b0: 0d12 200c 4825 b846 422f 384a 0f0a 0adc
000000c0: c2d6 d711 1aef da4a 007f 6417 fa6b 0912
000000d0: fe57 f220 1e45 7b30 f8ce 8245 f711 e4e9
000000e0: 347f 03b4 ca0f 2925 01f3 2b1a 0bf1 07b9
000000f0: ecd4 4eb8 07f0 2174 4207 0ddb cb22 132e

tfl.pseudo_qconst43 i1 [32, 1, 1, 144]
-2 -32 70 -1 9 -32 24 -52
-79 -2 37 -5 -1 -14 -16 77
121 -1 21 -16 -53 71 3 0
-22 17 -17 -10 -20 -11 -21 -3
79 -18 20 6 -28 -8 32 1
-13 3 -14 -127 55 4 1 2
-4 -1 15 -49 5 37 12 5
24 32 -13 -14 10 -29 47 -35
-8 20 -16 3 -12 -21 27 18
-6 -9 -5 -12 -2 3 0 9
56 21 -15 15 -13 19 -3 4
33 -26 0 7 4 23 -3 -2
0 -11 -8 -26 8 1 40 -7
15 7 -68 0 -30 -51 35 -14
-18 36 -42 21 0 -26 56 0
19 -16 4 26 44 -24 3 -6
-4 15 3 -19 17 51 0 57
1 113 10 -8 -28 29 -23 -12
10 1 5 -4 0 29 -15 2
33 7 -11 4 -15 -110 -1 -27
20 -14 -15 -1 49 -10 -1 0
-2 20 -1 1 -32 8 2 37
5 -14 13 -8 2 -1 -3 -3
-3 -6 28 -3 -1 10 -10 -8
2 18 0 -5 43 -17 -10 -8
-6 -8 1 -14 -27 -2 -35 7
-3 -6 -4 12 2 -127 -26 -8
-6 6 -3 8 0 15 -13 -2
0 -56 6 -13 9 -15 10 -5
0 19 -9 -14 0 17 -1 10
16 -78 2 1 -9 3 79 -49
-14 17 5 2 11 -8 -5 4
00000000: fee0 46ff 09e0 18cc b1fe 25fb fff2 f04d
00000010: 79ff 15f0 cb47 0300 ea11 eff6 ecf5 ebfd
00000020: 4fee 1406 e4f8 2001 f303 f281 3704 0102
00000030: fcff 0fcf 0525 0c05 1820 f3f2 0ae3 2fdd
00000040: f814 f003 f4eb 1b12 faf7 fbf4 fe03 0009
00000050: 3815 f10f f313 fd04 21e6 0007 0417 fdfe
00000060: 00f5 f8e6 0801 28f9 0f07 bc00 e2cd 23f2
00000070: ee24 d615 00e6 3800 13f0 041a 2ce8 03fa
00000080: fc0f 03ed 1133 0039 0171 0af8 e41d e9f4
00000090: 0a01 05fc 001d f102 2107 f504 f192 ffe5
000000a0: 14f2 f1ff 31f6 ff00 fe14 ff01 e008 0225
000000b0: 05f2 0df8 02ff fdfd fdfa 1cfd ff0a f6f8
000000c0: 0212 00fb 2bef f6f8 faf8 01f2 e5fe dd07
000000d0: fdfa fc0c 0281 e6f8 fa06 fd08 000f f3fe
000000e0: 00c8 06f3 09f1 0afb 0013 f7f2 0011 ff0a
000000f0: 10b2 0201 f703 4fcf f211 0502 0bf8 fb04

tfl.pseudo_qconst45 i1 [1, 3, 3, 144]
26 -12 19 -127 33 -6 -8 -62
-14 -9 5 2 -3 7 -7 -16
-17 7 -14 29 14 -3 -33 6
-20 -13 -13 -3 8 -4 -23 -9
-1 -4 -69 -9 19 5 -3 17
-9 49 -8 0 -14 -31 -38 -7
38 0 15 -12 10 11 -86 -5
-16 -14 -58 7 18 0 4 -9
83 1 -36 20 -3 -3 -21 -6
-6 -18 -1 -3 10 -2 -10 -8
-3 8 -15 10 5 3 -6 1
-5 -7 -40 -9 -44 -14 -11 16
-36 -8 -22 -11 7 -4 8 1
-52 -4 1 12 -3 -24 -7 -88
29 -6 -11 -21 25 -1 1 8
-7 -12 -1 -3 -2 -21 -1 -11
3 21 8 30 -10 6 -30 -7
-4 5 -48 13 1 5 -7 -88
-19 18 20 -10 127 -1 -10 -95
0 7 9 -14 -19 6 -19 0
20 -77 -96 -65 8 -13 39 7
10 39 -38 -6 -10 -51 -81 7
21 26 -120 -27 23 127 -1 -86
-20 -16 7 -17 14 -22 -95 27
14 32 103 18 60 13 -127 53
12 24 -43 12 -1 13 -7 39
127 59 -22 127 50 2 9 -1
-19 -23 23 -68 127 20 19 -5
-2 1 -3 -27 19 22 61 93
-14 36 -94 89 -62 25 26 29
-8 1 -21 9 -25 -4 -3 -35
-124 24 21 -37 -42 -69 -4 -127
00000000: 1af4 1381 21fa f8c2 f2f7 0502 fd07 f9f0
00000010: ef07 f21d 0efd df06 ecf3 f3fd 08fc e9f7
00000020: fffc bbf7 1305 fd11 f731 f800 f2e1 daf9
00000030: 2600 0ff4 0a0b aafb f0f2 c607 1200 04f7
00000040: 5301 dc14 fdfd ebfa faee fffd 0afe f6f8
00000050: fd08 f10a 0503 fa01 fbf9 d8f7 d4f2 f510
00000060: dcf8 eaf5 07fc 0801 ccfc 010c fde8 f9a8
00000070: 1dfa f5eb 19ff 0108 f9f4 fffd feeb fff5
00000080: 0315 081e f606 e2f9 fc05 d00d 0105 f9a8
00000090: ed12 14f6 7fff f6a1 0007 09f2 ed06 ed00
000000a0: 14b3 a0bf 08f3 2707 0a27 dafa f6cd af07
000000b0: 151a 88e5 177f ffaa ecf0 07ef 0eea a11b
000000c0: 0e20 6712 3c0d 8135 0c18 d50c ff0d f927
000000d0: 7f3b ea7f 3202 09ff ede9 17bc 7f14 13fb
000000e0: fe01 fde5 1316 3d5d f224 a259 c219 1a1d
000000f0: f801 eb09 e7fc fddd 8418 15db d6bb fc81

tfl.pseudo_qconst47 i1 [144, 1, 1, 24]
-124 42 28 -51 -10 15 21 16
-32 16 -23 127 -86 7 -23 -76
-105 41 64 1 73 53 26 92
-90 -15 39 17 -68 -16 -3 20
-15 47 -47 38 18 127 -72 64
-5 28 -20 43 -29 58 85 -80
-53 127 20 48 -72 -54 -5 -99
49 -2 -17 -78 -39 19 -7 -39
55 8 76 -36 57 9 -50 26
2 55 97 -5 -84 33 -89 79
-22 19 20 -12 -55 25 35 29
-8 16 -20 53 -127 -59 -5 -25
2 -14 -127 -27 41 7 -12 19
-4 10 -24 -23 -52 27 -30 -45
9 -11 30 68 13 1 18 38
-127 -44 -16 85 15 36 -62 3
46 -31 -23 -43 -23 96 -23 82
-56 16 7 52 -29 61 24 -27
32 -22 -25 -76 48 0 -54 -38
-38 22 0 127 -70 75 -31 -68
75 20 34 -33 52 -17 28 50
-3 76 -28 11 3 -63 -6 -8
127 13 -66 -29 -55 114 102 34
24 -36 63 -4 12 48 -1 49
-62 0 -13 -61 -2 9 43 -31
-84 40 -9 -49 -50 16 -61 109
-71 2 50 12 50 -26 73 127
-22 -13 36 64 57 12 80 29
19 13 -16 13 61 7 1 -11
36 4 48 6 127 80 -4 -23
-70 -62 16 41 0 -18 54 -15
5 -34 -18 -11 28 2 -127 90
00000000: 842a 1ccd f60f 1510 e010 e97f aa07 e9b4
00000010: 9729 4001 4935 1a5c a6f1 2711 bcf0 fd14
00000020: f12f d126 127f b840 fb1c ec2b e33a 55b0
00000030: cb7f 1430 b8ca fb9d 31fe efb2 d913 f9d9
00000040: 3708 4cdc 3909 ce1a 0237 61fb ac21 a74f
00000050: ea13 14f4 c919 231d f810 ec35 81c5 fbe7
00000060: 02f2 81e5 2907 f413 fc0a e8e9 cc1b e2d3
00000070: 09f5 1e44 0d01 1226 81d4 f055 0f24 c203
00000080: 2ee1 e9d5 e960 e952 c810 0734 e33d 18e5
00000090: 20ea e7b4 3000 cada da16 007f ba4b e1bc
000000a0: 4b14 22df 34ef 1c32 fd4c e40b 03c1 faf8
000000b0: 7f0d bee3 c972 6622 18dc 3ffc 0c30 ff31
000000c0: c200 f3c3 fe09 2be1 ac28 f7cf ce10 c36d
000000d0: b902 320c 32e6 497f eaf3 2440 390c 501d
000000e0: 130d f00d 3d07 01f5 2404 3006 7f50 fce9
000000f0: bac2 1029 00ee 36f1 05de eef5 1c02 815a

tfl.pseudo_qconst49 i1 [24, 1, 1, 144]
-12 44 -2 -23 -4 -3 -31 94
7 1 -8 3 0 4 -1 6
10 0 9 5 40 -43 3 -14
-7 -7 -27 -99 -2 -10 -20 -13
14 -4 -2 11 -16 19 12 13
-12 20 13 -13 -14 10 -26 -32
-7 3 15 -16 -2 -20 -18 3
-13 -1 18 9 -10 18 15 -13
5 -127 59 -14 -8 20 -19 -13
3 -15 -7 6 83 24 6 3
6 -2 -15 88 8 27 33 7
-7 12 -14 -10 1 1 24 -7
-2 6 -16 29 -5 22 0 -17
27 0 3 -35 39 3 -1 -16
11 5 13 -22 -5 4 23 -4
-7 19 11 -3 1 9 18 -16
10 -101 3 6 -26 32 -21 40
10 25 -18 15 -34 28 43 22
8 127 60 -105 1 -74 -62 18
10 -33 -24 -2 -31 15 49 33
-16 -48 13 57 -22 -34 -3 17
-65 -30 66 6 29 23 42 -81
-47 -99 3 -28 51 96 -103 -90
-6 -58 -61 -60 90 -3 8 -59
105 -35 2 -40 84 -32 41 -45
96 -80 -13 -23 -87 -9 9 48
13 -34 -40 47 113 -17 35 87
-89 -22 -120 -26 -45 -101 -43 -93
15 -21 17 46 -68 112 44 -2
-75 57 40 -35 -107 46 0 -21
-127 -22 43 -47 -48 36 -95 -5
-33 0 9 7 -36 -14 5 1
00000000: f42c fee9 fcfd e15e 0701 f803 0004 ff06
00000010: 0a00 0905 28d5 03f2 f9f9 e59d fef6 ecf3
00000020: 0efc fe0b f013 0c0d f414 0df3 f20a e6e0
00000030: f903 0ff0 feec ee03 f3ff 1209 f612 0ff3
00000040: 0581 3bf2 f814 edf3 03f1 f906 5318 0603
00000050: 06fe f158 081b 2107 f90c f2f6 0101 18f9
00000060: fe06 f01d fb16 00ef 1b00 03dd 2703 fff0
00000070: 0b05 0dea fb04 17fc f913 0bfd 0109 12f0
00000080: 0a9b 0306 e620 eb28 0a19 ee0f de1c 2b16
00000090: 087f 3c97 01b6 c212 0adf e8fe e10f 3121
000000a0: f0d0 0d39 eade fd11 bfe2 4206 1d17 2aaf
000000b0: d19d 03e4 3360 99a6 fac6 c3c4 5afd 08c5
000000c0: 69dd 02d8 54e0 29d3 60b0 f3e9 a9f7 0930
000000d0: 0dde d82f 71ef 2357 a7ea 88e6 d39b d5a3
000000e0: 0feb 112e bc70 2cfe b539 28dd 952e 00eb
000000f0: 81ea 2bd1 d024 a1fb df00 0907 dcf2 0501

tfl.pseudo_qconst51 i1 [1, 3, 3, 144]
-80 -52 19 5 -32 7 24 66
59 28 -15 -28 -15 5 -10 11
-9 21 26 -8 -30 1 36 46
7 -5 -18 41 39 -58 29 0
38 -4 52 3 -118 8 14 19
8 6 53 23 -17 -21 6 1
9 -28 46 18 7 38 -19 26
-17 -33 -27 24 118 1 -13 -82
-91 47 48 39 15 1 -8 25
127 34 32 9 19 14 -2 -5
9 -8 4 29 -11 30 98 21
19 19 -14 39 24 14 -21 77
-93 0 5 -7 4 -25 30 6
12 2 -19 42 2 6 127 -85
-40 2 12 -9 2 29 -5 -49
14 43 -127 22 13 72 18 33
39 6 35 2 -22 -8 -127 -26
24 34 75 -30 -24 -24 11 -127
-62 2 7 53 -55 42 -41 -43
127 30 -127 109 21 54 92 -67
-1 -12 -14 74 3 -22 92 -22
78 -12 1 127 47 -67 74 31
-26 -49 -33 -37 -127 28 -4 15
127 -45 127 -29 28 -116 29 -9
127 102 -26 33 -10 -115 -15 -18
-127 96 -22 10 127 -64 36 41
34 -122 54 -80 127 -41 103 -12
103 127 90 9 5 127 -21 91
6 -5 10 127 2 -36 127 66
127 101 -69 -3 57 127 -40 127
10 -34 3 -89 18 124 -35 -9
30 -30 -32 127 127 127 -10 -61
00000000: b0cc 1305 e007 1842 3b1c f1e4 f105 f60b
00000010: f715 1af8 e201 242e 07fb ee29 27c6 1d00
00000020: 26fc 3403 8a08 0e13 0806 3517 efeb 0601
00000030: 09e4 2e12 0726 ed1a efdf e518 7601 f3ae
00000040: a52f 3027 0f01 f819 7f22 2009 130e fefb
00000050: 09f8 041d f51e 6215 1313 f227 180e eb4d
00000060: a300 05f9 04e7 1e06 0c02 ed2a 0206 7fab
00000070: d802 0cf7 021d fbcf 0e2b 8116 0d48 1221
00000080: 2706 2302 eaf8 81e6 1822 4be2 e8e8 0b81
00000090: c202 0735 c92a d7d5 7f1e 816d 1536 5cbd
000000a0: fff4 f24a 03ea 5cea 4ef4 017f 2fbd 4a1f
000000b0: e6cf dfdb 811c fc0f 7fd3 7fe3 1c8c 1df7
000000c0: 7f66 e621 f68d f1ee 8160 ea0a 7fc0 2429
000000d0: 2286 36b0 7fd7 67f4 677f 5a09 057f eb5b
000000e0: 06fb 0a7f 02dc 7f42 7f65 bbfd 397f d87f
000000f0: 0ade 03a7 127c ddf7 1ee2 e07f 7f7f f6c3

tfl.pseudo_qconst53 i1 [144, 1, 1, 24]
-44 59 -124 -17 -3 -64 -79 -2
-127 55 23 15 -9 -81 -64 -34
-44 35 -6 25 85 39 -92 94
5 -2 123 41 -59 -84 16 -46
-74 12 -2 31 69 127 12 6
-95 84 -64 -69 66 -34 -35 0
3 -9 48 22 10 8 -30 21
6 34 -34 -127 -39 16 25 111
-37 -13 23 53 32 -36 65 12
-20 -22 5 12 -5 -10 42 -127
-27 -10 -3 11 10 30 -24 -23
-21 52 -24 -46 -12 -12 -32 -10
-51 63 -43 -61 16 32 -32 -11
120 -5 -49 -127 -2 63 54 54
14 -28 -8 -43 82 20 -2 1
-3 15 14 -3 0 14 0 127
-10 -5 5 5 -18 -4 22 20
-2 22 1 25 13 -1 6 2
-73 -77 54 30 -62 31 -36 -65
-7 -69 127 -15 -48 25 -7 102
125 2 -53 -29 16 22 1 -62
-127 -20 32 -81 105 -5 -18 11
6 4 62 -17 -4 42 12 -15
-17 -90 10 17 12 -46 -54 -45
29 -1 -91 -111 5 -62 -88 59
-127 -125 -43 55 -16 -78 27 -5
-74 42 -116 18 114 68 21 0
-68 57 13 18 5 -27 -92 -40
-101 127 -21 46 -60 -15 -28 25
-55 28 66 -59 65 27 28 45
0 -27 -31 -11 -64 51 20 -28
-119 -22 -45 -118 -19 15 -80 40
00000000: d43b 84ef fdc0 b1fe 8137 170f f7af c0de
00000010: d423 fa19 5527 a45e 05fe 7b29 c5ac 10d2
00000020: b60c fe1f 457f 0c06 a154 c0bb 42de dd00
00000030: 03f7 3016 0a08 e215 0622 de81 d910 196f
00000040: dbf3 1735 20dc 410c ecea 050c fbf6 2a81
00000050: e5f6 fd0b 0a1e e8e9 eb34 e8d2 f4f4 e0f6
00000060: cd3f d5c3 1020 e0f5 78fb cf81 fe3f 3636
00000070: 0ee4 f8d5 5214 fe01 fd0f 0efd 000e 007f
00000080: f6fb 0505 eefc 1614 fe16 0119 0dff 0602
00000090: b7b3 361e c21f dcbf f9bb 7ff1 d019 f966
000000a0: 7d02 cbe3 1016 01c2 81ec 20af 69fb ee0b
000000b0: 0604 3eef fc2a 0cf1 efa6 0a11 0cd2 cad3
000000c0: 1dff a591 05c2 a83b 8183 d537 f0b2 1bfb
000000d0: b62a 8c12 7244 1500 bc39 0d12 05e5 a4d8
000000e0: 9b7f eb2e c4f1 e419 c91c 42c5 411b 1c2d
000000f0: 00e5 e1f5 c033 14e4 89ea d38a ed0f b028

tfl.pseudo_qconst55 i1 [24, 1, 1, 144]
-6 41 30 27 12 92 -17 1
-21 -6 -5 4 -57 -3 6 78
-10 -30 -4 13 6 31 -5 45
-12 -32 59 -4 3 -40 12 19
16 24 -21 -37 -6 -7 -41 -21
-15 -16 15 3 -25 54 -9 -7
-30 -39 17 36 13 33 19 21
-9 -29 32 -50 31 -18 -4 43
-48 -33 23 -62 -14 -15 -7 7
-1 -16 17 34 -11 -29 -4 8
1 -3 13 115 29 0 14 -19
102 29 -62 3 0 77 13 25
5 -3 -12 -2 -127 9 48 26
0 15 -2 -53 26 48 -3 -41
14 25 -36 8 -29 -24 -13 -7
-22 42 8 32 10 -19 -5 2
23 -13 -28 -21 -4 10 -20 0
3 -28 -17 29 28 9 -6 52
1 48 48 15 32 -50 64 -81
11 -60 -15 -40 24 67 32 -63
-35 16 75 -4 -71 -21 -12 42
43 -21 5 -20 -5 -1 -49 -66
-15 46 -3 6 28 76 16 18
-21 10 -13 -14 49 120 -19 20
4 8 -17 10 17 -5 8 -29
-98 37 -19 80 4 -13 12 60
-7 21 17 -2 -48 37 -72 -1
-10 -28 -23 20 -36 29 -97 77
57 0 -103 9 -16 -37 73 59
6 72 44 32 -39 9 6 -58
34 17 55 28 127 -25 57 6
-21 -44 40 -16 20 40 -22 9
00000000: fa29 1e1b 0c5c ef01 ebfa fb04 c7fd 064e
00000010: f6e2 fc0d 061f fb2d f4e0 3bfc 03d8 0c13
00000020: 1018 ebdb faf9 d7eb f1f0 0f03 e736 f7f9
00000030: e2d9 1124 0d21 1315 f7e3 20ce 1fee fc2b
00000040: d0df 17c2 f2f1 f907 fff0 1122 f5e3 fc08
00000050: 01fd 0d73 1d00 0eed 661d c203 004d 0d19
00000060: 05fd f4fe 8109 301a 000f fecb 1a30 fdd7
00000070: 0e19 dc08 e3e8 f3f9 ea2a 0820 0aed fb02
00000080: 17f3 e4eb fc0a ec00 03e4 ef1d 1c09 fa34
00000090: 0130 300f 20ce 40af 0bc4 f1d8 1843 20c1
000000a0: dd10 4bfc b9eb f42a 2beb 05ec fbff cfbe
000000b0: f12e fd06 1c4c 1012 eb0a f3f2 3178 ed14
000000c0: 0408 ef0a 11fb 08e3 9e25 ed50 04f3 0c3c
000000d0: f915 11fe d025 b8ff f6e4 e914 dc1d 9f4d
000000e0: 3900 9909 f0db 493b 0648 2c20 d909 06c6
000000f0: 2211 371c 7fe7 3906 ebd4 28f0 1428 ea09

tfl.pseudo_qconst57 i1 [1, 3, 3, 144]
-4 1 -2 -121 55 -35 7 -8
-13 -3 -76 46 -2 -117 -13 13
0 12 11 -17 9 -10 1 -10
-10 -16 -13 19 8 -35 7 31
14 31 23 12 -33 8 21 4
13 47 -20 6 -109 -22 -47 18
-82 9 -2 -22 20 6 -58 10
-12 -24 -6 -15 -9 -9 1 -96
25 18 47 9 23 -6 -49 -93
43 -19 -39 -42 -5 -19 88 9
11 -18 12 -11 16 22 -4 -127
-25 2 4 -46 -24 127 -29 -17
4 0 40 -80 -16 13 19 -2
21 39 24 -2 15 -6 -2 13
20 0 10 25 -2 4 5 16
13 7 5 -36 19 17 -68 -44
-3 -8 26 -11 36 -33 39 -6
20 34 4 39 3 24 16 15
15 127 127 -51 35 39 -34 1
-83 41 -105 -59 50 -51 3 -33
-20 15 5 -60 -25 -85 -24 41
-75 23 17 -64 -31 -107 -7 127
3 36 -13 127 -47 15 -6 -27
127 -6 -7 -38 -35 -127 -127 -28
-17 -22 45 41 -5 -2 -127 -67
-28 -37 22 -25 -12 -89 71 -100
6 -3 127 78 54 -127 -50 -109
32 11 -31 -73 -32 127 -100 5
19 48 -32 25 -18 127 5 63
-127 -12 12 -127 -8 74 -21 -45
-38 -4 8 -127 -36 -6 7 -6
34 -127 127 28 -70 6 -59 127
00000000: fc01 fe87 37dd 07f8 f3fd b42e fe8b f30d
00000010: 000c 0bef 09f6 01f6 f6f0 f313 08dd 071f
00000020: 0e1f 170c df08 1504 0d2f ec06 93ea d112
00000030: ae09 feea 1406 c60a f4e8 faf1 f7f7 01a0
00000040: 1912 2f09 17fa cfa3 2bed d9d6 fbed 5809
00000050: 0bee 0cf5 1016 fc81 e702 04d2 e87f e3ef
00000060: 0400 28b0 f00d 13fe 1527 18fe 0ffa fe0d
00000070: 1400 0a19 fe04 0510 0d07 05dc 1311 bcd4
00000080: fdf8 1af5 24df 27fa 1422 0427 0318 100f
00000090: 0f7f 7fcd 2327 de01 ad29 97c5 32cd 03df
000000a0: ec0f 05c4 e7ab e829 b517 11c0 e195 f97f
000000b0: 0324 f37f d10f fae5 7ffa f9da dd81 81e4
000000c0: efea 2d29 fbfe 81bd e4db 16e7 f4a7 479c
000000d0: 06fd 7f4e 3681 ce93 200b e1b7 e07f 9c05
000000e0: 1330 e019 ee7f 053f 81f4 0c81 f84a ebd3
000000f0: dafc 0881 dcfa 07fa 2281 7f1c ba06 c57f

tfl.pseudo_qconst59 i1 [144, 1, 1, 24]
1 -58 127 63 -31 100 21 107
-93 -25 -11 -117 36 -4 -42 33
-4 -15 -55 -96 -99 35 37 -30
-22 -2 -24 42 -49 6 0 -2
-127 17 -14 7 22 29 -32 -41
-26 10 -24 -45 5 11 48 -31
-52 -42 -9 82 -44 -5 23 18
-80 -4 -13 -44 12 -59 127 -20
-7 36 22 -20 -21 -46 -58 79
-63 47 -33 -9 -61 -36 -69 13
50 -41 7 79 -116 39 -41 -21
-55 11 -28 8 -127 -51 -1 110
19 -26 -1 -36 -36 -3 127 45
-34 18 -26 13 6 68 5 -102
-10 0 13 -90 -14 -30 4 16
-44 -2 0 6 -47 -23 -74 25
24 -9 18 32 -46 29 -37 19
-48 7 -39 -8 -127 -41 -19 27
-68 -16 -10 74 -15 79 -29 -28
-79 -71 77 -103 -8 -46 -59 -127
28 -46 -59 -19 -12 2 -10 -89
-18 -94 -126 -121 -24 45 -119 71
-11 -21 -58 -10 -89 86 -105 -99
-112 -28 13 127 -70 -48 24 5
30 5 69 -78 36 8 67 15
62 -28 11 127 3 -78 90 74
-17 -24 -23 -3 2 -27 -46 61
10 -65 -83 85 123 15 63 39
5 -8 -73 -72 43 72 -49 61
127 -24 -6 125 94 67 -33 72
22 12 24 97 33 13 -3 67
-59 25 -19 10 30 44 -3 103
00000000: 01c6 7f3f e164 156b a3e7 f58b 24fc d621
00000010: fcf1 c9a0 9d23 25e2 eafe e82a cf06 00fe
00000020: 8111 f207 161d e0d7 e60a e8d3 050b 30e1
00000030: ccd6 f752 d4fb 1712 b0fc f3d4 0cc5 7fec
00000040: f924 16ec ebd2 c64f c12f dff7 c3dc bb0d
00000050: 32d7 074f 8c27 d7eb c90b e408 81cd ff6e
00000060: 13e6 ffdc dcfd 7f2d de12 e60d 0644 059a
00000070: f600 0da6 f2e2 0410 d4fe 0006 d1e9 b619
00000080: 18f7 1220 d21d db13 d007 d9f8 81d7 ed1b
00000090: bcf0 f64a f14f e3e4 b1b9 4d99 f8d2 c581
000000a0: 1cd2 c5ed f402 f6a7 eea2 8287 e82d 8947
000000b0: f5eb c6f6 a756 979d 90e4 0d7f bad0 1805
000000c0: 1e05 45b2 2408 430f 3ee4 0b7f 03b2 5a4a
000000d0: efe8 e9fd 02e5 d23d 0abf ad55 7b0f 3f27
000000e0: 05f8 b7b8 2b48 cf3d 7fe8 fa7d 5e43 df48
000000f0: 160c 1861 210d fd43 c519 ed0a 1e2c fd67

tfl.pseudo_qconst61 i1 [24, 1, 1, 144]
9 -2 55 -6 18 28 -30 -39
-20 -37 24 -33 -44 -21 -33 -5
3 -30 -33 -21 18 -29 -16 -19
-47 -18 27 26 49 -47 -73 4
-42 -15 -35 -10 51 34 -39 -61
-18 28 23 -31 17 4 33 2
21 -113 -32 12 -30 -23 -16 40
27 57 29 25 -36 -39 9 -44
-9 -99 12 -19 -11 -27 -1 55
-14 -23 -7 -22 4 -71 -37 127
-45 21 -44 14 -40 -26 4 -45
40 -85 -1 -11 -96 -8 -20 -8
-11 0 -53 14 2 -28 -16 44
-53 36 12 64 -15 -1 16 -2
-1 -31 -30 14 -22 -30 85 16
-6 43 13 -22 69 47 33 -81
-13 86 -27 34 -21 20 84 -62
1 -29 -11 19 -42 -58 -18 -66
-33 40 16 -19 22 24 -90 86
27 82 -52 46 9 17 -6 50
34 -49 -9 30 -10 -3 3 -21
-37 15 3 24 -6 -4 39 3
12 -8 -66 -26 -25 -85 2 29
3 -2 25 12 44 3 84 -13
-5 -67 -15 12 -26 48 -42 -4
-18 42 -13 19 -42 127 -64 47
70 -33 8 -10 -60 -13 -9 -23
-39 -42 24 10 14 35 -24 -48
119 -84 -5 -92 -72 41 -64 21
-61 55 -9 -4 -23 12 5 15
-36 -43 51 -91 44 -3 -30 -101
49 -33 40 25 -20 20 -33 -56
00000000: 09fe 37fa 121c e2d9 ecdb 18df d4eb dffb
00000010: 03e2 dfeb 12e3 f0ed d1ee 1b1a 31d1 b704
00000020: d6f1 ddf6 3322 d9c3 ee1c 17e1 1104 2102
00000030: 158f e00c e2e9 f028 1b39 1d19 dcd9 09d4
00000040: f79d 0ced f5e5 ff37 f2e9 f9ea 04b9 db7f
00000050: d315 d40e d8e6 04d3 28ab fff5 a0f8 ecf8
00000060: f500 cb0e 02e4 f02c cb24 0c40 f1ff 10fe
00000070: ffe1 e20e eae2 5510 fa2b 0dea 452f 21af
00000080: f356 e522 eb14 54c2 01e3 f513 d6c6 eebe
00000090: df28 10ed 1618 a656 1b52 cc2e 0911 fa32
000000a0: 22cf f71e f6fd 03eb db0f 0318 fafc 2703
000000b0: 0cf8 bee6 e7ab 021d 03fe 190c 2c03 54f3
000000c0: fbbd f10c e630 d6fc ee2a f313 d67f c02f
000000d0: 46df 08f6 c4f3 f7e9 d9d6 180a 0e23 e8d0
000000e0: 77ac fba4 b829 c015 c337 f7fc e90c 050f
000000f0: dcd5 33a5 2cfd e29b 31df 2819 ec14 dfc8
