results/model_summary/simplecnn_model.tflite (tflite, 30728 bytes, 4 tensors)

tfl.pseudo_qconst1 i1 [1, 64] scale=0.0023346303 zero_point=0
000000 6b 66 35 d1 56 64 c8 55 5d a5 a6 d2 cb 67 cb a8
       0.24980545 0.2381323 0.123735406 -0.10972763 0.20077822 0.23346303 -0.1307393 0.19844358 0.21712062 -0.21245137 -0.21011673 -0.107393 -0.123735406 0.24046692 -0.123735406 -0.20544747
000010 36 c5 be 2e ac c6 81 46 99 b4 27 b4 6a 8a 52 85
       0.12607004 -0.13774319 -0.1540856 0.107393 -0.19610895 -0.13540857 -0.29649806 0.16342412 -0.24046692 -0.17743191 0.09105058 -0.17743191 0.24747081 -0.27548638 0.19143969 -0.28715953
000020 49 2b 27 ab 3b c8 36 40 28 10 be 57 c8 b2 b0 9c
       0.17042802 0.10038911 0.09105058 -0.19844358 0.13774319 -0.1307393 0.12607004 0.14941634 0.09338521 0.037354086 -0.1540856 0.20311284 -0.1307393 -0.18210116 -0.18677042 -0.23346303
000030 3a 49 4a c2 31 29 31 71 2c 9b 4a 32 3d 3c a3 91
       0.13540857 0.17042802 0.17276265 -0.14474708 0.114396885 0.095719844 0.114396885 0.26381323 0.10272373 -0.23579766 0.17276265 0.11673152 0.14241245 0.14007781 -0.21712062 -0.25914398

tfl.pseudo_qconst3 i1 [64, 3, 3, 32]
000000 c2 f7 00 f3 bb d5 d8 ce 24 dd 54 33 e4 0d ea f4
       -62 -9 0 -13 -69 -43 -40 -50 36 -35 84 51 -28 13 -22 -12
000010 1d e4 41 7f 41 fd f0 f3 00 f0 b9 ab c3 b5 50 41
       29 -28 65 127 65 -3 -16 -13 0 -16 -71 -85 -61 -75 80 65
000020 a9 25 02 dc f8 06 23 10 07 18 27 39 e5 06 03 fc
       -87 37 2 -36 -8 6 35 16 7 24 39 57 -27 6 3 -4
000030 2d d5 d1 75 01 fe 36 ec 03 2b cd b0 c9 bf 48 0f
       45 -43 -47 117 1 -2 54 -20 3 43 -51 -80 -55 -65 72 15
000040 bd 27 cd e7 01 11 de ca e4 d8 02 30 34 d5 22 a2
       -67 39 -51 -25 1 17 -34 -54 -28 -40 2 48 52 -43 34 -94
000050 65 1b 10 62 fc 0f 2a c1 4b 4a e3 fc db b5 3d 2e
       101 27 16 98 -4 15 42 -63 75 74 -29 -4 -37 -75 61 46
000060 dc 2b 0c f7 c9 34 2a 10 dd 0c cc f4 fe b3 cb de
       -36 43 12 -9 -55 52 42 16 -35 12 -52 -12 -2 -77 -53 -34
000070 11 ce 1b 3e 01 32 e3 27 3f 23 f9 c3 fa 13 dd 43
       17 -50 27 62 1 50 -29 39 63 35 -7 -61 -6 19 -35 67
000080 bf 1c 38 0d f9 cc f3 f6 0f d8 02 e9 f2 c9 3d b6
       -65 28 56 13 -7 -52 -13 -10 15 -40 2 -23 -14 -55 61 -74
000090 44 37 cc 37 f6 d5 39 06 d9 fe be fa 3a 23 3f 3c
       68 55 -52 55 -10 -43 57 6 -39 -2 -66 -6 58 35 63 60
0000a0 fd cd fe ce bc 1c f3 29 f3 06 3c 11 d4 b3 fb bb
       -3 -51 -2 -50 -68 28 -13 41 -13 6 60 17 -44 -77 -5 -69
0000b0 2d ff 02 35 e7 05 c1 b9 14 18 dd 95 36 c7 23 2c
       45 -1 2 53 -25 5 -63 -71 20 24 -35 -107 54 -57 35 44
0000c0 18 09 df c4 da 33 dd 39 fb f4 db 11 12 0f e6 0b
       24 9 -33 -60 -38 51 -35 57 -5 -12 -37 17 18 15 -26 11
0000d0 51 43 c2 40 31 1b fb 40 e6 6a 32 94 23 eb 0e 4f
       81 67 -62 64 49 27 -5 64 -26 106 50 -108 35 -21 14 79
0000e0 36 ce c2 f5 1e 3d ff 0e de 1a fa 38 40 db f8 24
       54 -50 -62 -11 30 61 -1 14 -34 26 -6 56 64 -37 -8 36
0000f0 47 db 11 69 f4 32 e4 e2 ff 32 09 ea eb 18 02 e7
       71 -37 17 105 -12 50 -28 -30 -1 50 9 -22 -21 24 2 -25

tfl.pseudo_qconst5 i1 [32, 3, 3, 16]
000000 09 2b ba 5d 49 14 37 2e 04 9b da eb 31 eb cb 59
       9 43 -70 93 73 20 55 46 4 -101 -38 -21 49 -21 -53 89
000010 f9 03 f3 25 b4 51 14 e6 f0 c8 d8 d0 05 19 e7 34
       -7 3 -13 37 -76 81 20 -26 -16 -56 -40 -48 5 25 -25 52
000020 08 4d f2 5c 10 ff ab 21 2d aa b6 5a fe 30 4b c8
       8 77 -14 92 16 -1 -85 33 45 -86 -74 90 -2 48 75 -56
000030 53 4b 39 b5 fa a3 d1 cf 3a 05 4f 4c 01 fc 46 23
       83 75 57 -75 -6 -93 -47 -49 58 5 79 76 1 -4 70 35
000040 e2 7c cc e4 b5 c3 c5 bd 45 42 4d 5e a6 9c ba 34
       -30 124 -52 -28 -75 -61 -59 -67 69 66 77 94 -90 -100 -70 52
000050 e4 1f 5e 7f bb e7 53 16 1b 46 29 fd 15 37 26 5a
       -28 31 94 127 -69 -25 83 22 27 70 41 -3 21 55 38 90
000060 e2 ef 0d 48 06 b7 ff 15 1e a3 02 37 96 fc c7 c9
       -30 -17 13 72 6 -73 -1 21 30 -93 2 55 -106 -4 -57 -55
000070 4c f0 3d 4e 1f c6 d0 11 ad cd 06 3c d2 21 ba 9e
       76 -16 61 78 31 -58 -48 17 -83 -51 6 60 -46 33 -70 -98
000080 00 0d 16 91 ac db 51 cc e4 fa da 51 af 94 13 18
       0 13 22 -111 -84 -37 81 -52 -28 -6 -38 81 -81 -108 19 24
000090 b9 67 43 ec c8 02 31 ea 0c ed ee 5b d2 1c f7 13
       -71 103 67 -20 -56 2 49 -22 12 -19 -18 91 -46 28 -9 19
0000a0 46 f3 08 05 d7 d1 fe c6 de 46 10 ed da 4c 34 1d
       70 -13 8 5 -41 -47 -2 -58 -34 70 16 -19 -38 76 52 29
0000b0 2f 1b c9 e4 6a 58 d4 13 32 bd 5c 2b 4b 0d d2 27
       47 27 -55 -28 106 88 -44 19 50 -67 92 43 75 13 -46 39
0000c0 10 4a 0e 0d 06 02 9b 2c e7 ca 60 46 c6 e0 56 21
       16 74 14 13 6 2 -101 44 -25 -54 96 70 -58 -32 86 33
0000d0 01 26 31 39 31 ea 3b fb fc e8 46 ee f7 38 b3 0d
       1 38 49 57 49 -22 59 -5 -4 -24 70 -18 -9 56 -77 13
0000e0 ff 2b 49 26 13 f1 33 19 e0 d1 44 a3 f4 33 36 4a
       -1 43 73 38 19 -15 51 25 -32 -47 68 -93 -12 51 54 74
0000f0 13 de 3a 24 31 a9 12 3f fa 38 f1 81 a5 41 dc 25
       19 -34 58 36 49 -87 18 63 -6 56 -15 -127 -91 65 -36 37

tfl.pseudo_qconst7 i1 [16, 3, 3, 3]
000000 b5 58 2d 14 54 39 ec 10 f3 e3 eb 56 36 d8 37 a5
       -75 88 45 20 84 57 -20 16 -13 -29 -21 86 54 -40 55 -91
000010 e0 59 e8 0e 3a 00 30 12 1c 81 65 cc bb 2f f9 19
       -32 89 -24 14 58 0 48 18 28 -127 101 -52 -69 47 -7 25
000020 f4 7f c5 1d f4 9c 34 c6 31 33 3a 75 74 06 c2 a8
       -12 127 -59 29 -12 -100 52 -58 49 51 58 117 116 6 -62 -88
000030 9d c9 a5 20 29 26 f5 3a 3c 0c d0 3a 6c e8 41 37
       -99 -55 -91 32 41 38 -11 58 60 12 -48 58 108 -24 65 55
000040 dd 2f 56 c3 14 a6 a4 5c a0 01 04 ac cb 49 e7 81
       -35 47 86 -61 20 -90 -92 92 -96 1 4 -84 -53 73 -25 -127
000050 31 32 3e 66 7f f3 1a 31 ea 33 8c cc e4 53 c1 51
       49 50 62 102 127 -13 26 49 -22 51 -116 -52 -28 83 -63 81
000060 ac 32 c4 3e c9 e7 8d b4 d2 e7 28 fe fa bc 3f 7f
       -84 50 -60 62 -55 -25 -115 -76 -46 -25 40 -2 -6 -68 63 127
000070 43 1a ff 9c 9d 3d 44 c2 4e cb 51 ad 08 9f 8e fc
       67 26 -1 -100 -99 61 68 -62 78 -53 81 -83 8 -97 -114 -4
000080 2f 9a 1c 67 29 ad fa 20 39 5b db a6 23 1f 62 fc
       47 -102 28 103 41 -83 -6 32 57 91 -37 -90 35 31 98 -4
000090 e6 a2 71 81 03 a3 4a 18 d3 2f 8d eb 85 40 c7 09
       -26 -94 113 -127 3 -93 74 24 -45 47 -115 -21 -123 64 -57 9
0000a0 03 7f fe 22 da b8 34 e2 7f 36 b2 06 61 ca e9 a3
       3 127 -2 34 -38 -72 52 -30 127 54 -78 6 97 -54 -23 -93
0000b0 0c c4 c7 32 aa 01 25 6d 00 23 63 24 94 ab ca a7
       12 -60 -57 50 -86 1 37 109 0 35 99 36 -108 -85 -54 -89
0000c0 1d 66 fb 20 bc 0c b4 f3 c9 cf 67 73 74 34 f7 83
       29 102 -5 32 -68 12 -76 -13 -55 -49 103 115 116 52 -9 -125
0000d0 12 81 da 71 ed c1 0a 02 f1 bd 15 0a 02 0a 41 fe
       18 -127 -38 113 -19 -63 10 2 -15 -67 21 10 2 10 65 -2
0000e0 6c 81 4e 2b 24 e0 ce 27 1a 38 bd cd f5 dc 2e 30
       108 -127 78 43 36 -32 -50 39 26 56 -67 -51 -11 -36 46 48
0000f0 31 5c 5b 01 7f 34 04 02 02 01 2b e2 f4 eb 2d 50
       49 92 91 1 127 52 4 2 2 1 43 -30 -12 -21 45 80
